[2022-07-16 13:39:21,871][feature_train_ori.py][L371][INFO] Auto Encoder training
[2022-07-16 13:39:21,871][feature_train_ori.py][L372][INFO] Encoder & Decoder Model : 
[2022-07-16 13:39:28,513][feature_train_ori.py][L382][INFO] DataParallel(
  (module): Concatenation(
    (relu): LeakyReLU(negative_slope=0.01)
    (conv): Conv2d(384, 512, kernel_size=(3, 3), stride=(1, 1), padding=(1, 1))
    (conv1): Conv2d(512, 512, kernel_size=(3, 3), stride=(1, 1), padding=(1, 1))
    (conv1_2): Conv2d(512, 512, kernel_size=(3, 1), stride=(1, 1), padding=(1, 0), bias=False)
    (conv1_3): Conv2d(512, 512, kernel_size=(1, 3), stride=(1, 1), padding=(0, 1), bias=False)
    (bn1): BatchNorm2d(512, eps=1e-05, momentum=0.1, affine=True, track_running_stats=True)
    (conv2): Conv2d(512, 512, kernel_size=(3, 3), stride=(1, 1), padding=(1, 1))
    (conv2_2): Conv2d(512, 512, kernel_size=(3, 1), stride=(1, 1), padding=(1, 0), bias=False)
    (conv2_3): Conv2d(512, 512, kernel_size=(1, 3), stride=(1, 1), padding=(0, 1), bias=False)
    (bn2): BatchNorm2d(512, eps=1e-05, momentum=0.1, affine=True, track_running_stats=True)
    (resconv2): Conv2d(1024, 1024, kernel_size=(1, 1), stride=(2, 2))
    (conv3): Conv2d(1024, 1024, kernel_size=(3, 3), stride=(2, 2), padding=(1, 1))
    (conv3_2): Conv2d(1024, 1024, kernel_size=(3, 1), stride=(2, 2), padding=(1, 0), bias=False)
    (conv3_3): Conv2d(1024, 1024, kernel_size=(1, 3), stride=(2, 2), padding=(0, 1), bias=False)
    (bn3): BatchNorm2d(1024, eps=1e-05, momentum=0.1, affine=True, track_running_stats=True)
    (conv4): Conv2d(1024, 1024, kernel_size=(3, 3), stride=(1, 1), padding=(1, 1))
    (conv4_2): Conv2d(1024, 1024, kernel_size=(3, 1), stride=(1, 1), padding=(1, 0), bias=False)
    (conv4_3): Conv2d(1024, 1024, kernel_size=(1, 3), stride=(1, 1), padding=(0, 1), bias=False)
    (bn4): BatchNorm2d(1024, eps=1e-05, momentum=0.1, affine=True, track_running_stats=True)
    (resconv4): Conv2d(2048, 2048, kernel_size=(1, 1), stride=(2, 2))
    (conv5): Conv2d(2048, 2048, kernel_size=(3, 3), stride=(2, 2), padding=(1, 1))
    (conv5_2): Conv2d(2048, 2048, kernel_size=(3, 1), stride=(2, 2), padding=(1, 0), bias=False)
    (conv5_3): Conv2d(2048, 2048, kernel_size=(1, 3), stride=(2, 2), padding=(0, 1), bias=False)
    (bn5): BatchNorm2d(2048, eps=1e-05, momentum=0.1, affine=True, track_running_stats=True)
    (conv6): Conv2d(2048, 2048, kernel_size=(3, 3), stride=(1, 1), padding=(1, 1))
    (conv6_2): Conv2d(2048, 2048, kernel_size=(3, 1), stride=(1, 1), padding=(1, 0), bias=False)
    (conv6_3): Conv2d(2048, 2048, kernel_size=(1, 3), stride=(1, 1), padding=(0, 1), bias=False)
    (bn6): BatchNorm2d(2048, eps=1e-05, momentum=0.1, affine=True, track_running_stats=True)
    (conv11): ConvTranspose2d(4096, 2048, kernel_size=(3, 3), stride=(2, 2), padding=(1, 1), output_padding=(1, 1))
    (conv12): ConvTranspose2d(2048, 1024, kernel_size=(1, 1), stride=(1, 1))
    (conv13): ConvTranspose2d(1024, 512, kernel_size=(3, 3), stride=(2, 2), padding=(1, 1), output_padding=(1, 1))
    (conv14): ConvTranspose2d(512, 128, kernel_size=(1, 1), stride=(1, 1))
    (GP_conv0): Conv2d(384, 512, kernel_size=(1, 1), stride=(1, 1))
    (GP_pool1): AdaptiveMaxPool2d(output_size=(6, 6))
    (GP_conv1): Conv2d(384, 1024, kernel_size=(1, 1), stride=(1, 1))
    (GP_pool2): AdaptiveMaxPool2d(output_size=(3, 3))
    (GP_conv2): Conv2d(384, 2048, kernel_size=(1, 1), stride=(1, 1))
  )
)
[2022-07-16 13:43:03,421][feature_train_ori.py][L371][INFO] Auto Encoder training
[2022-07-16 13:43:03,421][feature_train_ori.py][L372][INFO] Encoder & Decoder Model : 
[2022-07-16 13:43:10,069][feature_train_ori.py][L382][INFO] DataParallel(
  (module): Concatenation(
    (relu): LeakyReLU(negative_slope=0.01)
    (conv): Conv2d(384, 512, kernel_size=(3, 3), stride=(1, 1), padding=(1, 1))
    (conv1): Conv2d(512, 512, kernel_size=(3, 3), stride=(1, 1), padding=(1, 1))
    (conv1_2): Conv2d(512, 512, kernel_size=(3, 1), stride=(1, 1), padding=(1, 0), bias=False)
    (conv1_3): Conv2d(512, 512, kernel_size=(1, 3), stride=(1, 1), padding=(0, 1), bias=False)
    (bn1): BatchNorm2d(512, eps=1e-05, momentum=0.1, affine=True, track_running_stats=True)
    (conv2): Conv2d(512, 512, kernel_size=(3, 3), stride=(1, 1), padding=(1, 1))
    (conv2_2): Conv2d(512, 512, kernel_size=(3, 1), stride=(1, 1), padding=(1, 0), bias=False)
    (conv2_3): Conv2d(512, 512, kernel_size=(1, 3), stride=(1, 1), padding=(0, 1), bias=False)
    (bn2): BatchNorm2d(512, eps=1e-05, momentum=0.1, affine=True, track_running_stats=True)
    (resconv2): Conv2d(1024, 1024, kernel_size=(1, 1), stride=(2, 2))
    (conv3): Conv2d(1024, 1024, kernel_size=(3, 3), stride=(2, 2), padding=(1, 1))
    (conv3_2): Conv2d(1024, 1024, kernel_size=(3, 1), stride=(2, 2), padding=(1, 0), bias=False)
    (conv3_3): Conv2d(1024, 1024, kernel_size=(1, 3), stride=(2, 2), padding=(0, 1), bias=False)
    (bn3): BatchNorm2d(1024, eps=1e-05, momentum=0.1, affine=True, track_running_stats=True)
    (conv4): Conv2d(1024, 1024, kernel_size=(3, 3), stride=(1, 1), padding=(1, 1))
    (conv4_2): Conv2d(1024, 1024, kernel_size=(3, 1), stride=(1, 1), padding=(1, 0), bias=False)
    (conv4_3): Conv2d(1024, 1024, kernel_size=(1, 3), stride=(1, 1), padding=(0, 1), bias=False)
    (bn4): BatchNorm2d(1024, eps=1e-05, momentum=0.1, affine=True, track_running_stats=True)
    (resconv4): Conv2d(2048, 2048, kernel_size=(1, 1), stride=(2, 2))
    (conv5): Conv2d(2048, 2048, kernel_size=(3, 3), stride=(2, 2), padding=(1, 1))
    (conv5_2): Conv2d(2048, 2048, kernel_size=(3, 1), stride=(2, 2), padding=(1, 0), bias=False)
    (conv5_3): Conv2d(2048, 2048, kernel_size=(1, 3), stride=(2, 2), padding=(0, 1), bias=False)
    (bn5): BatchNorm2d(2048, eps=1e-05, momentum=0.1, affine=True, track_running_stats=True)
    (conv6): Conv2d(2048, 2048, kernel_size=(3, 3), stride=(1, 1), padding=(1, 1))
    (conv6_2): Conv2d(2048, 2048, kernel_size=(3, 1), stride=(1, 1), padding=(1, 0), bias=False)
    (conv6_3): Conv2d(2048, 2048, kernel_size=(1, 3), stride=(1, 1), padding=(0, 1), bias=False)
    (bn6): BatchNorm2d(2048, eps=1e-05, momentum=0.1, affine=True, track_running_stats=True)
    (conv11): ConvTranspose2d(4096, 2048, kernel_size=(3, 3), stride=(2, 2), padding=(1, 1), output_padding=(1, 1))
    (conv12): ConvTranspose2d(2048, 1024, kernel_size=(1, 1), stride=(1, 1))
    (conv13): ConvTranspose2d(1024, 512, kernel_size=(3, 3), stride=(2, 2), padding=(1, 1), output_padding=(1, 1))
    (conv14): ConvTranspose2d(512, 128, kernel_size=(1, 1), stride=(1, 1))
    (GP_conv0): Conv2d(384, 512, kernel_size=(1, 1), stride=(1, 1))
    (GP_pool1): AdaptiveMaxPool2d(output_size=(6, 6))
    (GP_conv1): Conv2d(384, 1024, kernel_size=(1, 1), stride=(1, 1))
    (GP_pool2): AdaptiveMaxPool2d(output_size=(3, 3))
    (GP_conv2): Conv2d(384, 2048, kernel_size=(1, 1), stride=(1, 1))
  )
)
[2022-07-16 13:43:13,245][feature_train_ori.py][L121][INFO] Epoch 0 begin
[2022-07-16 13:43:47,196][feature_train_ori.py][L371][INFO] Auto Encoder training
[2022-07-16 13:43:47,197][feature_train_ori.py][L372][INFO] Encoder & Decoder Model : 
[2022-07-16 13:43:53,774][feature_train_ori.py][L382][INFO] DataParallel(
  (module): Concatenation(
    (relu): LeakyReLU(negative_slope=0.01)
    (conv): Conv2d(384, 512, kernel_size=(3, 3), stride=(1, 1), padding=(1, 1))
    (conv1): Conv2d(512, 512, kernel_size=(3, 3), stride=(1, 1), padding=(1, 1))
    (conv1_2): Conv2d(512, 512, kernel_size=(3, 1), stride=(1, 1), padding=(1, 0), bias=False)
    (conv1_3): Conv2d(512, 512, kernel_size=(1, 3), stride=(1, 1), padding=(0, 1), bias=False)
    (bn1): BatchNorm2d(512, eps=1e-05, momentum=0.1, affine=True, track_running_stats=True)
    (conv2): Conv2d(512, 512, kernel_size=(3, 3), stride=(1, 1), padding=(1, 1))
    (conv2_2): Conv2d(512, 512, kernel_size=(3, 1), stride=(1, 1), padding=(1, 0), bias=False)
    (conv2_3): Conv2d(512, 512, kernel_size=(1, 3), stride=(1, 1), padding=(0, 1), bias=False)
    (bn2): BatchNorm2d(512, eps=1e-05, momentum=0.1, affine=True, track_running_stats=True)
    (resconv2): Conv2d(1024, 1024, kernel_size=(1, 1), stride=(2, 2))
    (conv3): Conv2d(1024, 1024, kernel_size=(3, 3), stride=(2, 2), padding=(1, 1))
    (conv3_2): Conv2d(1024, 1024, kernel_size=(3, 1), stride=(2, 2), padding=(1, 0), bias=False)
    (conv3_3): Conv2d(1024, 1024, kernel_size=(1, 3), stride=(2, 2), padding=(0, 1), bias=False)
    (bn3): BatchNorm2d(1024, eps=1e-05, momentum=0.1, affine=True, track_running_stats=True)
    (conv4): Conv2d(1024, 1024, kernel_size=(3, 3), stride=(1, 1), padding=(1, 1))
    (conv4_2): Conv2d(1024, 1024, kernel_size=(3, 1), stride=(1, 1), padding=(1, 0), bias=False)
    (conv4_3): Conv2d(1024, 1024, kernel_size=(1, 3), stride=(1, 1), padding=(0, 1), bias=False)
    (bn4): BatchNorm2d(1024, eps=1e-05, momentum=0.1, affine=True, track_running_stats=True)
    (resconv4): Conv2d(2048, 2048, kernel_size=(1, 1), stride=(2, 2))
    (conv5): Conv2d(2048, 2048, kernel_size=(3, 3), stride=(2, 2), padding=(1, 1))
    (conv5_2): Conv2d(2048, 2048, kernel_size=(3, 1), stride=(2, 2), padding=(1, 0), bias=False)
    (conv5_3): Conv2d(2048, 2048, kernel_size=(1, 3), stride=(2, 2), padding=(0, 1), bias=False)
    (bn5): BatchNorm2d(2048, eps=1e-05, momentum=0.1, affine=True, track_running_stats=True)
    (conv6): Conv2d(2048, 2048, kernel_size=(3, 3), stride=(1, 1), padding=(1, 1))
    (conv6_2): Conv2d(2048, 2048, kernel_size=(3, 1), stride=(1, 1), padding=(1, 0), bias=False)
    (conv6_3): Conv2d(2048, 2048, kernel_size=(1, 3), stride=(1, 1), padding=(0, 1), bias=False)
    (bn6): BatchNorm2d(2048, eps=1e-05, momentum=0.1, affine=True, track_running_stats=True)
    (conv11): ConvTranspose2d(4096, 2048, kernel_size=(3, 3), stride=(2, 2), padding=(1, 1), output_padding=(1, 1))
    (conv12): ConvTranspose2d(2048, 1024, kernel_size=(1, 1), stride=(1, 1))
    (conv13): ConvTranspose2d(1024, 512, kernel_size=(3, 3), stride=(2, 2), padding=(1, 1), output_padding=(1, 1))
    (conv14): ConvTranspose2d(512, 128, kernel_size=(1, 1), stride=(1, 1))
    (GP_conv0): Conv2d(384, 512, kernel_size=(1, 1), stride=(1, 1))
    (GP_pool1): AdaptiveMaxPool2d(output_size=(6, 6))
    (GP_conv1): Conv2d(384, 1024, kernel_size=(1, 1), stride=(1, 1))
    (GP_pool2): AdaptiveMaxPool2d(output_size=(3, 3))
    (GP_conv2): Conv2d(384, 2048, kernel_size=(1, 1), stride=(1, 1))
  )
)
[2022-07-16 13:43:56,934][feature_train_ori.py][L121][INFO] Epoch 0 begin
[2022-07-16 13:45:22,987][feature_train_ori.py][L371][INFO] Auto Encoder training
[2022-07-16 13:45:22,987][feature_train_ori.py][L372][INFO] Encoder & Decoder Model : 
[2022-07-16 13:45:29,569][feature_train_ori.py][L382][INFO] DataParallel(
  (module): Concatenation(
    (relu): LeakyReLU(negative_slope=0.01)
    (conv): Conv2d(384, 512, kernel_size=(3, 3), stride=(1, 1), padding=(1, 1))
    (conv1): Conv2d(512, 512, kernel_size=(3, 3), stride=(1, 1), padding=(1, 1))
    (conv1_2): Conv2d(512, 512, kernel_size=(3, 1), stride=(1, 1), padding=(1, 0), bias=False)
    (conv1_3): Conv2d(512, 512, kernel_size=(1, 3), stride=(1, 1), padding=(0, 1), bias=False)
    (bn1): BatchNorm2d(512, eps=1e-05, momentum=0.1, affine=True, track_running_stats=True)
    (conv2): Conv2d(512, 512, kernel_size=(3, 3), stride=(1, 1), padding=(1, 1))
    (conv2_2): Conv2d(512, 512, kernel_size=(3, 1), stride=(1, 1), padding=(1, 0), bias=False)
    (conv2_3): Conv2d(512, 512, kernel_size=(1, 3), stride=(1, 1), padding=(0, 1), bias=False)
    (bn2): BatchNorm2d(512, eps=1e-05, momentum=0.1, affine=True, track_running_stats=True)
    (resconv2): Conv2d(1024, 1024, kernel_size=(1, 1), stride=(2, 2))
    (conv3): Conv2d(1024, 1024, kernel_size=(3, 3), stride=(2, 2), padding=(1, 1))
    (conv3_2): Conv2d(1024, 1024, kernel_size=(3, 1), stride=(2, 2), padding=(1, 0), bias=False)
    (conv3_3): Conv2d(1024, 1024, kernel_size=(1, 3), stride=(2, 2), padding=(0, 1), bias=False)
    (bn3): BatchNorm2d(1024, eps=1e-05, momentum=0.1, affine=True, track_running_stats=True)
    (conv4): Conv2d(1024, 1024, kernel_size=(3, 3), stride=(1, 1), padding=(1, 1))
    (conv4_2): Conv2d(1024, 1024, kernel_size=(3, 1), stride=(1, 1), padding=(1, 0), bias=False)
    (conv4_3): Conv2d(1024, 1024, kernel_size=(1, 3), stride=(1, 1), padding=(0, 1), bias=False)
    (bn4): BatchNorm2d(1024, eps=1e-05, momentum=0.1, affine=True, track_running_stats=True)
    (resconv4): Conv2d(2048, 2048, kernel_size=(1, 1), stride=(2, 2))
    (conv5): Conv2d(2048, 2048, kernel_size=(3, 3), stride=(2, 2), padding=(1, 1))
    (conv5_2): Conv2d(2048, 2048, kernel_size=(3, 1), stride=(2, 2), padding=(1, 0), bias=False)
    (conv5_3): Conv2d(2048, 2048, kernel_size=(1, 3), stride=(2, 2), padding=(0, 1), bias=False)
    (bn5): BatchNorm2d(2048, eps=1e-05, momentum=0.1, affine=True, track_running_stats=True)
    (conv6): Conv2d(2048, 2048, kernel_size=(3, 3), stride=(1, 1), padding=(1, 1))
    (conv6_2): Conv2d(2048, 2048, kernel_size=(3, 1), stride=(1, 1), padding=(1, 0), bias=False)
    (conv6_3): Conv2d(2048, 2048, kernel_size=(1, 3), stride=(1, 1), padding=(0, 1), bias=False)
    (bn6): BatchNorm2d(2048, eps=1e-05, momentum=0.1, affine=True, track_running_stats=True)
    (conv11): ConvTranspose2d(4096, 2048, kernel_size=(3, 3), stride=(2, 2), padding=(1, 1), output_padding=(1, 1))
    (conv12): ConvTranspose2d(2048, 1024, kernel_size=(1, 1), stride=(1, 1))
    (conv13): ConvTranspose2d(1024, 512, kernel_size=(3, 3), stride=(2, 2), padding=(1, 1), output_padding=(1, 1))
    (conv14): ConvTranspose2d(512, 128, kernel_size=(1, 1), stride=(1, 1))
    (GP_conv0): Conv2d(384, 512, kernel_size=(1, 1), stride=(1, 1))
    (GP_pool1): AdaptiveMaxPool2d(output_size=(6, 6))
    (GP_conv1): Conv2d(384, 1024, kernel_size=(1, 1), stride=(1, 1))
    (GP_pool2): AdaptiveMaxPool2d(output_size=(3, 3))
    (GP_conv2): Conv2d(384, 2048, kernel_size=(1, 1), stride=(1, 1))
  )
)
[2022-07-16 13:45:32,721][feature_train_ori.py][L121][INFO] Epoch 0 begin
[2022-07-16 13:47:09,421][feature_train_ori.py][L371][INFO] Auto Encoder training
[2022-07-16 13:47:09,422][feature_train_ori.py][L372][INFO] Encoder & Decoder Model : 
[2022-07-16 13:47:15,980][feature_train_ori.py][L382][INFO] DataParallel(
  (module): Concatenation(
    (relu): LeakyReLU(negative_slope=0.01)
    (conv): Conv2d(384, 512, kernel_size=(3, 3), stride=(1, 1), padding=(1, 1))
    (conv1): Conv2d(512, 512, kernel_size=(3, 3), stride=(1, 1), padding=(1, 1))
    (conv1_2): Conv2d(512, 512, kernel_size=(3, 1), stride=(1, 1), padding=(1, 0), bias=False)
    (conv1_3): Conv2d(512, 512, kernel_size=(1, 3), stride=(1, 1), padding=(0, 1), bias=False)
    (bn1): BatchNorm2d(512, eps=1e-05, momentum=0.1, affine=True, track_running_stats=True)
    (conv2): Conv2d(512, 512, kernel_size=(3, 3), stride=(1, 1), padding=(1, 1))
    (conv2_2): Conv2d(512, 512, kernel_size=(3, 1), stride=(1, 1), padding=(1, 0), bias=False)
    (conv2_3): Conv2d(512, 512, kernel_size=(1, 3), stride=(1, 1), padding=(0, 1), bias=False)
    (bn2): BatchNorm2d(512, eps=1e-05, momentum=0.1, affine=True, track_running_stats=True)
    (resconv2): Conv2d(1024, 1024, kernel_size=(1, 1), stride=(2, 2))
    (conv3): Conv2d(1024, 1024, kernel_size=(3, 3), stride=(2, 2), padding=(1, 1))
    (conv3_2): Conv2d(1024, 1024, kernel_size=(3, 1), stride=(2, 2), padding=(1, 0), bias=False)
    (conv3_3): Conv2d(1024, 1024, kernel_size=(1, 3), stride=(2, 2), padding=(0, 1), bias=False)
    (bn3): BatchNorm2d(1024, eps=1e-05, momentum=0.1, affine=True, track_running_stats=True)
    (conv4): Conv2d(1024, 1024, kernel_size=(3, 3), stride=(1, 1), padding=(1, 1))
    (conv4_2): Conv2d(1024, 1024, kernel_size=(3, 1), stride=(1, 1), padding=(1, 0), bias=False)
    (conv4_3): Conv2d(1024, 1024, kernel_size=(1, 3), stride=(1, 1), padding=(0, 1), bias=False)
    (bn4): BatchNorm2d(1024, eps=1e-05, momentum=0.1, affine=True, track_running_stats=True)
    (resconv4): Conv2d(2048, 2048, kernel_size=(1, 1), stride=(2, 2))
    (conv5): Conv2d(2048, 2048, kernel_size=(3, 3), stride=(2, 2), padding=(1, 1))
    (conv5_2): Conv2d(2048, 2048, kernel_size=(3, 1), stride=(2, 2), padding=(1, 0), bias=False)
    (conv5_3): Conv2d(2048, 2048, kernel_size=(1, 3), stride=(2, 2), padding=(0, 1), bias=False)
    (bn5): BatchNorm2d(2048, eps=1e-05, momentum=0.1, affine=True, track_running_stats=True)
    (conv6): Conv2d(2048, 2048, kernel_size=(3, 3), stride=(1, 1), padding=(1, 1))
    (conv6_2): Conv2d(2048, 2048, kernel_size=(3, 1), stride=(1, 1), padding=(1, 0), bias=False)
    (conv6_3): Conv2d(2048, 2048, kernel_size=(1, 3), stride=(1, 1), padding=(0, 1), bias=False)
    (bn6): BatchNorm2d(2048, eps=1e-05, momentum=0.1, affine=True, track_running_stats=True)
    (conv11): ConvTranspose2d(4096, 2048, kernel_size=(3, 3), stride=(2, 2), padding=(1, 1), output_padding=(1, 1))
    (conv12): ConvTranspose2d(2048, 1024, kernel_size=(1, 1), stride=(1, 1))
    (conv13): ConvTranspose2d(1024, 512, kernel_size=(3, 3), stride=(2, 2), padding=(1, 1), output_padding=(1, 1))
    (conv14): ConvTranspose2d(512, 128, kernel_size=(1, 1), stride=(1, 1))
    (GP_conv0): Conv2d(384, 512, kernel_size=(1, 1), stride=(1, 1))
    (GP_pool1): AdaptiveMaxPool2d(output_size=(6, 6))
    (GP_conv1): Conv2d(384, 1024, kernel_size=(1, 1), stride=(1, 1))
    (GP_pool2): AdaptiveMaxPool2d(output_size=(3, 3))
    (GP_conv2): Conv2d(384, 2048, kernel_size=(1, 1), stride=(1, 1))
  )
)
[2022-07-16 13:47:19,131][feature_train_ori.py][L121][INFO] Epoch 0 begin
[2022-07-16 13:48:11,683][feature_train_ori.py][L371][INFO] Auto Encoder training
[2022-07-16 13:48:11,683][feature_train_ori.py][L372][INFO] Encoder & Decoder Model : 
[2022-07-16 13:48:18,260][feature_train_ori.py][L382][INFO] DataParallel(
  (module): Concatenation(
    (relu): LeakyReLU(negative_slope=0.01)
    (conv): Conv2d(384, 512, kernel_size=(3, 3), stride=(1, 1), padding=(1, 1))
    (conv1): Conv2d(512, 512, kernel_size=(3, 3), stride=(1, 1), padding=(1, 1))
    (conv1_2): Conv2d(512, 512, kernel_size=(3, 1), stride=(1, 1), padding=(1, 0), bias=False)
    (conv1_3): Conv2d(512, 512, kernel_size=(1, 3), stride=(1, 1), padding=(0, 1), bias=False)
    (bn1): BatchNorm2d(512, eps=1e-05, momentum=0.1, affine=True, track_running_stats=True)
    (conv2): Conv2d(512, 512, kernel_size=(3, 3), stride=(1, 1), padding=(1, 1))
    (conv2_2): Conv2d(512, 512, kernel_size=(3, 1), stride=(1, 1), padding=(1, 0), bias=False)
    (conv2_3): Conv2d(512, 512, kernel_size=(1, 3), stride=(1, 1), padding=(0, 1), bias=False)
    (bn2): BatchNorm2d(512, eps=1e-05, momentum=0.1, affine=True, track_running_stats=True)
    (resconv2): Conv2d(1024, 1024, kernel_size=(1, 1), stride=(2, 2))
    (conv3): Conv2d(1024, 1024, kernel_size=(3, 3), stride=(2, 2), padding=(1, 1))
    (conv3_2): Conv2d(1024, 1024, kernel_size=(3, 1), stride=(2, 2), padding=(1, 0), bias=False)
    (conv3_3): Conv2d(1024, 1024, kernel_size=(1, 3), stride=(2, 2), padding=(0, 1), bias=False)
    (bn3): BatchNorm2d(1024, eps=1e-05, momentum=0.1, affine=True, track_running_stats=True)
    (conv4): Conv2d(1024, 1024, kernel_size=(3, 3), stride=(1, 1), padding=(1, 1))
    (conv4_2): Conv2d(1024, 1024, kernel_size=(3, 1), stride=(1, 1), padding=(1, 0), bias=False)
    (conv4_3): Conv2d(1024, 1024, kernel_size=(1, 3), stride=(1, 1), padding=(0, 1), bias=False)
    (bn4): BatchNorm2d(1024, eps=1e-05, momentum=0.1, affine=True, track_running_stats=True)
    (resconv4): Conv2d(2048, 2048, kernel_size=(1, 1), stride=(2, 2))
    (conv5): Conv2d(2048, 2048, kernel_size=(3, 3), stride=(2, 2), padding=(1, 1))
    (conv5_2): Conv2d(2048, 2048, kernel_size=(3, 1), stride=(2, 2), padding=(1, 0), bias=False)
    (conv5_3): Conv2d(2048, 2048, kernel_size=(1, 3), stride=(2, 2), padding=(0, 1), bias=False)
    (bn5): BatchNorm2d(2048, eps=1e-05, momentum=0.1, affine=True, track_running_stats=True)
    (conv6): Conv2d(2048, 2048, kernel_size=(3, 3), stride=(1, 1), padding=(1, 1))
    (conv6_2): Conv2d(2048, 2048, kernel_size=(3, 1), stride=(1, 1), padding=(1, 0), bias=False)
    (conv6_3): Conv2d(2048, 2048, kernel_size=(1, 3), stride=(1, 1), padding=(0, 1), bias=False)
    (bn6): BatchNorm2d(2048, eps=1e-05, momentum=0.1, affine=True, track_running_stats=True)
    (conv11): ConvTranspose2d(4096, 2048, kernel_size=(3, 3), stride=(2, 2), padding=(1, 1), output_padding=(1, 1))
    (conv12): ConvTranspose2d(2048, 1024, kernel_size=(1, 1), stride=(1, 1))
    (conv13): ConvTranspose2d(1024, 512, kernel_size=(3, 3), stride=(2, 2), padding=(1, 1), output_padding=(1, 1))
    (conv14): ConvTranspose2d(512, 128, kernel_size=(1, 1), stride=(1, 1))
    (GP_conv0): Conv2d(384, 512, kernel_size=(1, 1), stride=(1, 1))
    (GP_pool1): AdaptiveMaxPool2d(output_size=(6, 6))
    (GP_conv1): Conv2d(384, 1024, kernel_size=(1, 1), stride=(1, 1))
    (GP_pool2): AdaptiveMaxPool2d(output_size=(3, 3))
    (GP_conv2): Conv2d(384, 2048, kernel_size=(1, 1), stride=(1, 1))
  )
)
[2022-07-16 13:48:21,463][feature_train_ori.py][L121][INFO] Epoch 0 begin
[2022-07-16 13:49:47,931][feature_train_ori.py][L371][INFO] Auto Encoder training
[2022-07-16 13:49:47,931][feature_train_ori.py][L372][INFO] Encoder & Decoder Model : 
[2022-07-16 13:49:54,579][feature_train_ori.py][L382][INFO] DataParallel(
  (module): Concatenation(
    (relu): LeakyReLU(negative_slope=0.01)
    (conv): Conv2d(384, 512, kernel_size=(3, 3), stride=(1, 1), padding=(1, 1))
    (conv1): Conv2d(512, 512, kernel_size=(3, 3), stride=(1, 1), padding=(1, 1))
    (conv1_2): Conv2d(512, 512, kernel_size=(3, 1), stride=(1, 1), padding=(1, 0), bias=False)
    (conv1_3): Conv2d(512, 512, kernel_size=(1, 3), stride=(1, 1), padding=(0, 1), bias=False)
    (bn1): BatchNorm2d(512, eps=1e-05, momentum=0.1, affine=True, track_running_stats=True)
    (conv2): Conv2d(512, 512, kernel_size=(3, 3), stride=(1, 1), padding=(1, 1))
    (conv2_2): Conv2d(512, 512, kernel_size=(3, 1), stride=(1, 1), padding=(1, 0), bias=False)
    (conv2_3): Conv2d(512, 512, kernel_size=(1, 3), stride=(1, 1), padding=(0, 1), bias=False)
    (bn2): BatchNorm2d(512, eps=1e-05, momentum=0.1, affine=True, track_running_stats=True)
    (resconv2): Conv2d(1024, 1024, kernel_size=(1, 1), stride=(2, 2))
    (conv3): Conv2d(1024, 1024, kernel_size=(3, 3), stride=(2, 2), padding=(1, 1))
    (conv3_2): Conv2d(1024, 1024, kernel_size=(3, 1), stride=(2, 2), padding=(1, 0), bias=False)
    (conv3_3): Conv2d(1024, 1024, kernel_size=(1, 3), stride=(2, 2), padding=(0, 1), bias=False)
    (bn3): BatchNorm2d(1024, eps=1e-05, momentum=0.1, affine=True, track_running_stats=True)
    (conv4): Conv2d(1024, 1024, kernel_size=(3, 3), stride=(1, 1), padding=(1, 1))
    (conv4_2): Conv2d(1024, 1024, kernel_size=(3, 1), stride=(1, 1), padding=(1, 0), bias=False)
    (conv4_3): Conv2d(1024, 1024, kernel_size=(1, 3), stride=(1, 1), padding=(0, 1), bias=False)
    (bn4): BatchNorm2d(1024, eps=1e-05, momentum=0.1, affine=True, track_running_stats=True)
    (resconv4): Conv2d(2048, 2048, kernel_size=(1, 1), stride=(2, 2))
    (conv5): Conv2d(2048, 2048, kernel_size=(3, 3), stride=(2, 2), padding=(1, 1))
    (conv5_2): Conv2d(2048, 2048, kernel_size=(3, 1), stride=(2, 2), padding=(1, 0), bias=False)
    (conv5_3): Conv2d(2048, 2048, kernel_size=(1, 3), stride=(2, 2), padding=(0, 1), bias=False)
    (bn5): BatchNorm2d(2048, eps=1e-05, momentum=0.1, affine=True, track_running_stats=True)
    (conv6): Conv2d(2048, 2048, kernel_size=(3, 3), stride=(1, 1), padding=(1, 1))
    (conv6_2): Conv2d(2048, 2048, kernel_size=(3, 1), stride=(1, 1), padding=(1, 0), bias=False)
    (conv6_3): Conv2d(2048, 2048, kernel_size=(1, 3), stride=(1, 1), padding=(0, 1), bias=False)
    (bn6): BatchNorm2d(2048, eps=1e-05, momentum=0.1, affine=True, track_running_stats=True)
    (conv11): ConvTranspose2d(4096, 2048, kernel_size=(3, 3), stride=(2, 2), padding=(1, 1), output_padding=(1, 1))
    (conv12): ConvTranspose2d(2048, 1024, kernel_size=(1, 1), stride=(1, 1))
    (conv13): ConvTranspose2d(1024, 512, kernel_size=(3, 3), stride=(2, 2), padding=(1, 1), output_padding=(1, 1))
    (conv14): ConvTranspose2d(512, 128, kernel_size=(1, 1), stride=(1, 1))
    (GP_conv0): Conv2d(384, 512, kernel_size=(1, 1), stride=(1, 1))
    (GP_pool1): AdaptiveMaxPool2d(output_size=(6, 6))
    (GP_conv1): Conv2d(384, 1024, kernel_size=(1, 1), stride=(1, 1))
    (GP_pool2): AdaptiveMaxPool2d(output_size=(3, 3))
    (GP_conv2): Conv2d(384, 2048, kernel_size=(1, 1), stride=(1, 1))
  )
)
[2022-07-16 13:49:57,729][feature_train_ori.py][L121][INFO] Epoch 0 begin
[2022-07-16 13:52:38,701][feature_train_ori.py][L371][INFO] Auto Encoder training
[2022-07-16 13:52:38,701][feature_train_ori.py][L372][INFO] Encoder & Decoder Model : 
[2022-07-16 13:52:45,325][feature_train_ori.py][L382][INFO] DataParallel(
  (module): Concatenation(
    (relu): LeakyReLU(negative_slope=0.01)
    (conv): Conv2d(384, 512, kernel_size=(3, 3), stride=(1, 1), padding=(1, 1))
    (conv1): Conv2d(512, 512, kernel_size=(3, 3), stride=(1, 1), padding=(1, 1))
    (conv1_2): Conv2d(512, 512, kernel_size=(3, 1), stride=(1, 1), padding=(1, 0), bias=False)
    (conv1_3): Conv2d(512, 512, kernel_size=(1, 3), stride=(1, 1), padding=(0, 1), bias=False)
    (bn1): BatchNorm2d(512, eps=1e-05, momentum=0.1, affine=True, track_running_stats=True)
    (conv2): Conv2d(512, 512, kernel_size=(3, 3), stride=(1, 1), padding=(1, 1))
    (conv2_2): Conv2d(512, 512, kernel_size=(3, 1), stride=(1, 1), padding=(1, 0), bias=False)
    (conv2_3): Conv2d(512, 512, kernel_size=(1, 3), stride=(1, 1), padding=(0, 1), bias=False)
    (bn2): BatchNorm2d(512, eps=1e-05, momentum=0.1, affine=True, track_running_stats=True)
    (resconv2): Conv2d(1024, 1024, kernel_size=(1, 1), stride=(2, 2))
    (conv3): Conv2d(1024, 1024, kernel_size=(3, 3), stride=(2, 2), padding=(1, 1))
    (conv3_2): Conv2d(1024, 1024, kernel_size=(3, 1), stride=(2, 2), padding=(1, 0), bias=False)
    (conv3_3): Conv2d(1024, 1024, kernel_size=(1, 3), stride=(2, 2), padding=(0, 1), bias=False)
    (bn3): BatchNorm2d(1024, eps=1e-05, momentum=0.1, affine=True, track_running_stats=True)
    (conv4): Conv2d(1024, 1024, kernel_size=(3, 3), stride=(1, 1), padding=(1, 1))
    (conv4_2): Conv2d(1024, 1024, kernel_size=(3, 1), stride=(1, 1), padding=(1, 0), bias=False)
    (conv4_3): Conv2d(1024, 1024, kernel_size=(1, 3), stride=(1, 1), padding=(0, 1), bias=False)
    (bn4): BatchNorm2d(1024, eps=1e-05, momentum=0.1, affine=True, track_running_stats=True)
    (resconv4): Conv2d(2048, 2048, kernel_size=(1, 1), stride=(2, 2))
    (conv5): Conv2d(2048, 2048, kernel_size=(3, 3), stride=(2, 2), padding=(1, 1))
    (conv5_2): Conv2d(2048, 2048, kernel_size=(3, 1), stride=(2, 2), padding=(1, 0), bias=False)
    (conv5_3): Conv2d(2048, 2048, kernel_size=(1, 3), stride=(2, 2), padding=(0, 1), bias=False)
    (bn5): BatchNorm2d(2048, eps=1e-05, momentum=0.1, affine=True, track_running_stats=True)
    (conv6): Conv2d(2048, 2048, kernel_size=(3, 3), stride=(1, 1), padding=(1, 1))
    (conv6_2): Conv2d(2048, 2048, kernel_size=(3, 1), stride=(1, 1), padding=(1, 0), bias=False)
    (conv6_3): Conv2d(2048, 2048, kernel_size=(1, 3), stride=(1, 1), padding=(0, 1), bias=False)
    (bn6): BatchNorm2d(2048, eps=1e-05, momentum=0.1, affine=True, track_running_stats=True)
    (conv11): ConvTranspose2d(4096, 2048, kernel_size=(3, 3), stride=(2, 2), padding=(1, 1), output_padding=(1, 1))
    (conv12): ConvTranspose2d(2048, 1024, kernel_size=(1, 1), stride=(1, 1))
    (conv13): ConvTranspose2d(1024, 512, kernel_size=(3, 3), stride=(2, 2), padding=(1, 1), output_padding=(1, 1))
    (conv14): ConvTranspose2d(512, 128, kernel_size=(1, 1), stride=(1, 1))
    (GP_conv0): Conv2d(384, 512, kernel_size=(1, 1), stride=(1, 1))
    (GP_pool1): AdaptiveMaxPool2d(output_size=(6, 6))
    (GP_conv1): Conv2d(384, 1024, kernel_size=(1, 1), stride=(1, 1))
    (GP_pool2): AdaptiveMaxPool2d(output_size=(3, 3))
    (GP_conv2): Conv2d(384, 2048, kernel_size=(1, 1), stride=(1, 1))
  )
)
[2022-07-16 13:52:48,486][feature_train_ori.py][L121][INFO] Epoch 0 begin
[2022-07-16 13:54:55,272][feature_train_ori.py][L371][INFO] Auto Encoder training
[2022-07-16 13:54:55,273][feature_train_ori.py][L372][INFO] Encoder & Decoder Model : 
[2022-07-16 13:55:01,879][feature_train_ori.py][L383][INFO] DataParallel(
  (module): Concatenation(
    (relu): LeakyReLU(negative_slope=0.01)
    (conv): Conv2d(384, 512, kernel_size=(3, 3), stride=(1, 1), padding=(1, 1))
    (conv1): Conv2d(512, 512, kernel_size=(3, 3), stride=(1, 1), padding=(1, 1))
    (conv1_2): Conv2d(512, 512, kernel_size=(3, 1), stride=(1, 1), padding=(1, 0), bias=False)
    (conv1_3): Conv2d(512, 512, kernel_size=(1, 3), stride=(1, 1), padding=(0, 1), bias=False)
    (bn1): BatchNorm2d(512, eps=1e-05, momentum=0.1, affine=True, track_running_stats=True)
    (conv2): Conv2d(512, 512, kernel_size=(3, 3), stride=(1, 1), padding=(1, 1))
    (conv2_2): Conv2d(512, 512, kernel_size=(3, 1), stride=(1, 1), padding=(1, 0), bias=False)
    (conv2_3): Conv2d(512, 512, kernel_size=(1, 3), stride=(1, 1), padding=(0, 1), bias=False)
    (bn2): BatchNorm2d(512, eps=1e-05, momentum=0.1, affine=True, track_running_stats=True)
    (resconv2): Conv2d(1024, 1024, kernel_size=(1, 1), stride=(2, 2))
    (conv3): Conv2d(1024, 1024, kernel_size=(3, 3), stride=(2, 2), padding=(1, 1))
    (conv3_2): Conv2d(1024, 1024, kernel_size=(3, 1), stride=(2, 2), padding=(1, 0), bias=False)
    (conv3_3): Conv2d(1024, 1024, kernel_size=(1, 3), stride=(2, 2), padding=(0, 1), bias=False)
    (bn3): BatchNorm2d(1024, eps=1e-05, momentum=0.1, affine=True, track_running_stats=True)
    (conv4): Conv2d(1024, 1024, kernel_size=(3, 3), stride=(1, 1), padding=(1, 1))
    (conv4_2): Conv2d(1024, 1024, kernel_size=(3, 1), stride=(1, 1), padding=(1, 0), bias=False)
    (conv4_3): Conv2d(1024, 1024, kernel_size=(1, 3), stride=(1, 1), padding=(0, 1), bias=False)
    (bn4): BatchNorm2d(1024, eps=1e-05, momentum=0.1, affine=True, track_running_stats=True)
    (resconv4): Conv2d(2048, 2048, kernel_size=(1, 1), stride=(2, 2))
    (conv5): Conv2d(2048, 2048, kernel_size=(3, 3), stride=(2, 2), padding=(1, 1))
    (conv5_2): Conv2d(2048, 2048, kernel_size=(3, 1), stride=(2, 2), padding=(1, 0), bias=False)
    (conv5_3): Conv2d(2048, 2048, kernel_size=(1, 3), stride=(2, 2), padding=(0, 1), bias=False)
    (bn5): BatchNorm2d(2048, eps=1e-05, momentum=0.1, affine=True, track_running_stats=True)
    (conv6): Conv2d(2048, 2048, kernel_size=(3, 3), stride=(1, 1), padding=(1, 1))
    (conv6_2): Conv2d(2048, 2048, kernel_size=(3, 1), stride=(1, 1), padding=(1, 0), bias=False)
    (conv6_3): Conv2d(2048, 2048, kernel_size=(1, 3), stride=(1, 1), padding=(0, 1), bias=False)
    (bn6): BatchNorm2d(2048, eps=1e-05, momentum=0.1, affine=True, track_running_stats=True)
    (conv11): ConvTranspose2d(4096, 2048, kernel_size=(3, 3), stride=(2, 2), padding=(1, 1), output_padding=(1, 1))
    (conv12): ConvTranspose2d(2048, 1024, kernel_size=(1, 1), stride=(1, 1))
    (conv13): ConvTranspose2d(1024, 512, kernel_size=(3, 3), stride=(2, 2), padding=(1, 1), output_padding=(1, 1))
    (conv14): ConvTranspose2d(512, 128, kernel_size=(1, 1), stride=(1, 1))
    (GP_conv0): Conv2d(384, 512, kernel_size=(1, 1), stride=(1, 1))
    (GP_pool1): AdaptiveMaxPool2d(output_size=(6, 6))
    (GP_conv1): Conv2d(384, 1024, kernel_size=(1, 1), stride=(1, 1))
    (GP_pool2): AdaptiveMaxPool2d(output_size=(3, 3))
    (GP_conv2): Conv2d(384, 2048, kernel_size=(1, 1), stride=(1, 1))
  )
)
[2022-07-16 13:55:05,037][feature_train_ori.py][L121][INFO] Epoch 0 begin
[2022-07-16 14:05:33,412][feature_train_ori.py][L371][INFO] Auto Encoder training
[2022-07-16 14:05:33,413][feature_train_ori.py][L372][INFO] Encoder & Decoder Model : 
[2022-07-16 14:05:39,982][feature_train_ori.py][L383][INFO] DataParallel(
  (module): Concatenation(
    (relu): LeakyReLU(negative_slope=0.01)
    (conv): Conv2d(384, 512, kernel_size=(3, 3), stride=(1, 1), padding=(1, 1))
    (conv1): Conv2d(512, 512, kernel_size=(3, 3), stride=(1, 1), padding=(1, 1))
    (conv1_2): Conv2d(512, 512, kernel_size=(3, 1), stride=(1, 1), padding=(1, 0), bias=False)
    (conv1_3): Conv2d(512, 512, kernel_size=(1, 3), stride=(1, 1), padding=(0, 1), bias=False)
    (bn1): BatchNorm2d(512, eps=1e-05, momentum=0.1, affine=True, track_running_stats=True)
    (conv2): Conv2d(512, 512, kernel_size=(3, 3), stride=(1, 1), padding=(1, 1))
    (conv2_2): Conv2d(512, 512, kernel_size=(3, 1), stride=(1, 1), padding=(1, 0), bias=False)
    (conv2_3): Conv2d(512, 512, kernel_size=(1, 3), stride=(1, 1), padding=(0, 1), bias=False)
    (bn2): BatchNorm2d(512, eps=1e-05, momentum=0.1, affine=True, track_running_stats=True)
    (resconv2): Conv2d(1024, 1024, kernel_size=(1, 1), stride=(2, 2))
    (conv3): Conv2d(1024, 1024, kernel_size=(3, 3), stride=(2, 2), padding=(1, 1))
    (conv3_2): Conv2d(1024, 1024, kernel_size=(3, 1), stride=(2, 2), padding=(1, 0), bias=False)
    (conv3_3): Conv2d(1024, 1024, kernel_size=(1, 3), stride=(2, 2), padding=(0, 1), bias=False)
    (bn3): BatchNorm2d(1024, eps=1e-05, momentum=0.1, affine=True, track_running_stats=True)
    (conv4): Conv2d(1024, 1024, kernel_size=(3, 3), stride=(1, 1), padding=(1, 1))
    (conv4_2): Conv2d(1024, 1024, kernel_size=(3, 1), stride=(1, 1), padding=(1, 0), bias=False)
    (conv4_3): Conv2d(1024, 1024, kernel_size=(1, 3), stride=(1, 1), padding=(0, 1), bias=False)
    (bn4): BatchNorm2d(1024, eps=1e-05, momentum=0.1, affine=True, track_running_stats=True)
    (resconv4): Conv2d(2048, 2048, kernel_size=(1, 1), stride=(2, 2))
    (conv5): Conv2d(2048, 2048, kernel_size=(3, 3), stride=(2, 2), padding=(1, 1))
    (conv5_2): Conv2d(2048, 2048, kernel_size=(3, 1), stride=(2, 2), padding=(1, 0), bias=False)
    (conv5_3): Conv2d(2048, 2048, kernel_size=(1, 3), stride=(2, 2), padding=(0, 1), bias=False)
    (bn5): BatchNorm2d(2048, eps=1e-05, momentum=0.1, affine=True, track_running_stats=True)
    (conv6): Conv2d(2048, 2048, kernel_size=(3, 3), stride=(1, 1), padding=(1, 1))
    (conv6_2): Conv2d(2048, 2048, kernel_size=(3, 1), stride=(1, 1), padding=(1, 0), bias=False)
    (conv6_3): Conv2d(2048, 2048, kernel_size=(1, 3), stride=(1, 1), padding=(0, 1), bias=False)
    (bn6): BatchNorm2d(2048, eps=1e-05, momentum=0.1, affine=True, track_running_stats=True)
    (conv11): ConvTranspose2d(4096, 2048, kernel_size=(3, 3), stride=(2, 2), padding=(1, 1), output_padding=(1, 1))
    (conv12): ConvTranspose2d(2048, 1024, kernel_size=(1, 1), stride=(1, 1))
    (conv13): ConvTranspose2d(1024, 512, kernel_size=(3, 3), stride=(2, 2), padding=(1, 1), output_padding=(1, 1))
    (conv14): ConvTranspose2d(512, 128, kernel_size=(1, 1), stride=(1, 1))
    (GP_conv0): Conv2d(384, 512, kernel_size=(1, 1), stride=(1, 1))
    (GP_pool1): AdaptiveMaxPool2d(output_size=(6, 6))
    (GP_conv1): Conv2d(384, 1024, kernel_size=(1, 1), stride=(1, 1))
    (GP_pool2): AdaptiveMaxPool2d(output_size=(3, 3))
    (GP_conv2): Conv2d(384, 2048, kernel_size=(1, 1), stride=(1, 1))
  )
)
[2022-07-16 14:05:47,184][feature_train_ori.py][L121][INFO] Epoch 0 begin
[2022-07-16 14:07:28,539][feature_train_ori.py][L341][INFO] Step [1/2500000=0.00%] | Epoch 0 | Time 100.838 (100.838) | Lr 0.0001 | AIC Loss 0.02496 (0.02496) | All Losses 0.28056 (0.28056)
[2022-07-16 14:08:41,901][feature_train_ori.py][L341][INFO] Step [2/2500000=0.00%] | Epoch 0 | Time 73.336 (73.336) | Lr 0.0001 | AIC Loss 0.06718 (0.06718) | All Losses 0.25894 (0.25894)
…
[2022-07-16 15:51:31,504][feature_train_ori.py][L341][INFO] Step [92/2500000=0.00%] | Epoch 0 | Time 67.951 (67.951) | Lr 0.0001 | AIC Loss 0.05808 (0.05808) | All Losses 0.17330 (0.17330)
[2022-07-16 15:52:39,748][feature_train_ori.py][L341][INFO] Step [93/2500000=0.00%] | Epoch 0 | Time 68.219 (68.219) | Lr 0.0001 | AIC Loss 0.07359 (0.07359) | All Losses 0.19422 (0.19422)
[2022-07-16 22:12:13,221][feature_train_ori.py][L371][INFO] Auto Encoder training
[2022-07-16 22:12:13,221][feature_train_ori.py][L372][INFO] Encoder & Decoder Model : 
[2022-07-16 22:12:19,339][feature_train_ori.py][L383][INFO] DataParallel(
  (module): Concatenation(
    (relu): LeakyReLU(negative_slope=0.01)
    (conv): Conv2d(384, 512, kernel_size=(3, 3), stride=(1, 1), padding=(1, 1))
    (conv1): Conv2d(512, 512, kernel_size=(3, 3), stride=(1, 1), padding=(1, 1))
    (conv1_2): Conv2d(512, 512, kernel_size=(3, 1), stride=(1, 1), padding=(1, 0), bias=False)
    (conv1_3): Conv2d(512, 512, kernel_size=(1, 3), stride=(1, 1), padding=(0, 1), bias=False)
    (bn1): BatchNorm2d(512, eps=1e-05, momentum=0.1, affine=True, track_running_stats=True)
    (conv2): Conv2d(512, 512, kernel_size=(3, 3), stride=(1, 1), padding=(1, 1))
    (conv2_2): Conv2d(512, 512, kernel_size=(3, 1), stride=(1, 1), padding=(1, 0), bias=False)
    (conv2_3): Conv2d(512, 512, kernel_size=(1, 3), stride=(1, 1), padding=(0, 1), bias=False)
    (bn2): BatchNorm2d(512, eps=1e-05, momentum=0.1, affine=True, track_running_stats=True)
    (resconv2): Conv2d(1024, 1024, kernel_size=(1, 1), stride=(2, 2))
    (conv3): Conv2d(1024, 1024, kernel_size=(3, 3), stride=(2, 2), padding=(1, 1))
    (conv3_2): Conv2d(1024, 1024, kernel_size=(3, 1), stride=(2, 2), padding=(1, 0), bias=False)
    (conv3_3): Conv2d(1024, 1024, kernel_size=(1, 3), stride=(2, 2), padding=(0, 1), bias=False)
    (bn3): BatchNorm2d(1024, eps=1e-05, momentum=0.1, affine=True, track_running_stats=True)
    (conv4): Conv2d(1024, 1024, kernel_size=(3, 3), stride=(1, 1), padding=(1, 1))
    (conv4_2): Conv2d(1024, 1024, kernel_size=(3, 1), stride=(1, 1), padding=(1, 0), bias=False)
    (conv4_3): Conv2d(1024, 1024, kernel_size=(1, 3), stride=(1, 1), padding=(0, 1), bias=False)
    (bn4): BatchNorm2d(1024, eps=1e-05, momentum=0.1, affine=True, track_running_stats=True)
    (resconv4): Conv2d(2048, 2048, kernel_size=(1, 1), stride=(2, 2))
    (conv5): Conv2d(2048, 2048, kernel_size=(3, 3), stride=(2, 2), padding=(1, 1))
    (conv5_2): Conv2d(2048, 2048, kernel_size=(3, 1), stride=(2, 2), padding=(1, 0), bias=False)
    (conv5_3): Conv2d(2048, 2048, kernel_size=(1, 3), stride=(2, 2), padding=(0, 1), bias=False)
    (bn5): BatchNorm2d(2048, eps=1e-05, momentum=0.1, affine=True, track_running_stats=True)
    (conv6): Conv2d(2048, 2048, kernel_size=(3, 3), stride=(1, 1), padding=(1, 1))
    (conv6_2): Conv2d(2048, 2048, kernel_size=(3, 1), stride=(1, 1), padding=(1, 0), bias=False)
    (conv6_3): Conv2d(2048, 2048, kernel_size=(1, 3), stride=(1, 1), padding=(0, 1), bias=False)
    (bn6): BatchNorm2d(2048, eps=1e-05, momentum=0.1, affine=True, track_running_stats=True)
    (conv11): Conv2d(4096, 512, kernel_size=(3, 3), stride=(1, 1), padding=(1, 1), padding_mode=reflect)
    (conv12): Conv2d(512, 128, kernel_size=(3, 3), stride=(1, 1), padding=(1, 1), padding_mode=reflect)
    (GP_conv0): Conv2d(384, 512, kernel_size=(1, 1), stride=(1, 1))
    (GP_pool1): AdaptiveMaxPool2d(output_size=(6, 6))
    (GP_conv1): Conv2d(384, 1024, kernel_size=(1, 1), stride=(1, 1))
    (GP_pool2): AdaptiveMaxPool2d(output_size=(3, 3))
    (GP_conv2): Conv2d(384, 2048, kernel_size=(1, 1), stride=(1, 1))
  )
)
[2022-07-16 22:12:26,818][feature_train_ori.py][L121][INFO] Epoch 0 begin
[2022-07-16 22:15:35,140][feature_train_ori.py][L371][INFO] Auto Encoder training
[2022-07-16 22:15:35,140][feature_train_ori.py][L372][INFO] Encoder & Decoder Model : 
[2022-07-16 22:15:41,197][feature_train_ori.py][L383][INFO] Concatenation(
  (relu): LeakyReLU(negative_slope=0.01)
  (conv): Conv2d(384, 512, kernel_size=(3, 3), stride=(1, 1), padding=(1, 1))
  (conv1): Conv2d(512, 512, kernel_size=(3, 3), stride=(1, 1), padding=(1, 1))
  (conv1_2): Conv2d(512, 512, kernel_size=(3, 1), stride=(1, 1), padding=(1, 0), bias=False)
  (conv1_3): Conv2d(512, 512, kernel_size=(1, 3), stride=(1, 1), padding=(0, 1), bias=False)
  (bn1): BatchNorm2d(512, eps=1e-05, momentum=0.1, affine=True, track_running_stats=True)
  (conv2): Conv2d(512, 512, kernel_size=(3, 3), stride=(1, 1), padding=(1, 1))
  (conv2_2): Conv2d(512, 512, kernel_size=(3, 1), stride=(1, 1), padding=(1, 0), bias=False)
  (conv2_3): Conv2d(512, 512, kernel_size=(1, 3), stride=(1, 1), padding=(0, 1), bias=False)
  (bn2): BatchNorm2d(512, eps=1e-05, momentum=0.1, affine=True, track_running_stats=True)
  (resconv2): Conv2d(1024, 1024, kernel_size=(1, 1), stride=(2, 2))
  (conv3): Conv2d(1024, 1024, kernel_size=(3, 3), stride=(2, 2), padding=(1, 1))
  (conv3_2): Conv2d(1024, 1024, kernel_size=(3, 1), stride=(2, 2), padding=(1, 0), bias=False)
  (conv3_3): Conv2d(1024, 1024, kernel_size=(1, 3), stride=(2, 2), padding=(0, 1), bias=False)
  (bn3): BatchNorm2d(1024, eps=1e-05, momentum=0.1, affine=True, track_running_stats=True)
  (conv4): Conv2d(1024, 1024, kernel_size=(3, 3), stride=(1, 1), padding=(1, 1))
  (conv4_2): Conv2d(1024, 1024, kernel_size=(3, 1), stride=(1, 1), padding=(1, 0), bias=False)
  (conv4_3): Conv2d(1024, 1024, kernel_size=(1, 3), stride=(1, 1), padding=(0, 1), bias=False)
  (bn4): BatchNorm2d(1024, eps=1e-05, momentum=0.1, affine=True, track_running_stats=True)
  (resconv4): Conv2d(2048, 2048, kernel_size=(1, 1), stride=(2, 2))
  (conv5): Conv2d(2048, 2048, kernel_size=(3, 3), stride=(2, 2), padding=(1, 1))
  (conv5_2): Conv2d(2048, 2048, kernel_size=(3, 1), stride=(2, 2), padding=(1, 0), bias=False)
  (conv5_3): Conv2d(2048, 2048, kernel_size=(1, 3), stride=(2, 2), padding=(0, 1), bias=False)
  (bn5): BatchNorm2d(2048, eps=1e-05, momentum=0.1, affine=True, track_running_stats=True)
  (conv6): Conv2d(2048, 2048, kernel_size=(3, 3), stride=(1, 1), padding=(1, 1))
  (conv6_2): Conv2d(2048, 2048, kernel_size=(3, 1), stride=(1, 1), padding=(1, 0), bias=False)
  (conv6_3): Conv2d(2048, 2048, kernel_size=(1, 3), stride=(1, 1), padding=(0, 1), bias=False)
  (bn6): BatchNorm2d(2048, eps=1e-05, momentum=0.1, affine=True, track_running_stats=True)
  (conv11): Conv2d(4096, 512, kernel_size=(3, 3), stride=(1, 1), padding=(1, 1), padding_mode=reflect)
  (conv12): Conv2d(512, 128, kernel_size=(3, 3), stride=(1, 1), padding=(1, 1), padding_mode=reflect)
  (GP_conv0): Conv2d(384, 512, kernel_size=(1, 1), stride=(1, 1))
  (GP_pool1): AdaptiveMaxPool2d(output_size=(6, 6))
  (GP_conv1): Conv2d(384, 1024, kernel_size=(1, 1), stride=(1, 1))
  (GP_pool2): AdaptiveMaxPool2d(output_size=(3, 3))
  (GP_conv2): Conv2d(384, 2048, kernel_size=(1, 1), stride=(1, 1))
)
[2022-07-16 22:15:48,496][feature_train_ori.py][L121][INFO] Epoch 0 begin
[2022-07-16 22:17:02,816][feature_train_ori.py][L341][INFO] Step [1/2500000=0.00%] | Epoch 0 | Time 73.857 (73.857) | Lr 0.0001 | AIC Loss 0.01841 (0.01841) | All Losses 0.13850 (0.13850)
[2022-07-16 22:18:15,869][feature_train_ori.py][L341][INFO] Step [2/2500000=0.00%] | Epoch 0 | Time 73.037 (73.037) | Lr 0.0001 | AIC Loss 0.38794 (0.38794) | All Losses 0.45330 (0.45330)
…
[2022-07-16 23:03:44,716][feature_train_ori.py][L341][INFO] Step [40/2500000=0.00%] | Epoch 0 | Time 69.580 (69.580) | Lr 0.0001 | AIC Loss 0.03872 (0.03872) | All Losses 0.06569 (0.06569)
[2022-07-16 23:05:05,242][feature_train_ori.py][L341][INFO] Step [41/2500000=0.00%] | Epoch 0 | Time 71.991 (71.991) | Lr 0.0001 | AIC Loss 0.04883 (0.04883) | All Losses 0.08284 (0.08284)
[2022-07-16 23:08:07,501][feature_train_ori.py][L371][INFO] Auto Encoder training
[2022-07-16 23:08:07,501][feature_train_ori.py][L372][INFO] Encoder & Decoder Model : 
[2022-07-16 23:08:13,694][feature_train_ori.py][L383][INFO] Concatenation(
  (relu): LeakyReLU(negative_slope=0.01)
  (conv): Conv2d(384, 512, kernel_size=(3, 3), stride=(1, 1), padding=(1, 1))
  (conv1): Conv2d(512, 512, kernel_size=(3, 3), stride=(1, 1), padding=(1, 1))
  (conv1_2): Conv2d(512, 512, kernel_size=(3, 1), stride=(1, 1), padding=(1, 0), bias=False)
  (conv1_3): Conv2d(512, 512, kernel_size=(1, 3), stride=(1, 1), padding=(0, 1), bias=False)
  (bn1): BatchNorm2d(512, eps=1e-05, momentum=0.1, affine=True, track_running_stats=True)
  (conv2): Conv2d(512, 512, kernel_size=(3, 3), stride=(1, 1), padding=(1, 1))
  (conv2_2): Conv2d(512, 512, kernel_size=(3, 1), stride=(1, 1), padding=(1, 0), bias=False)
  (conv2_3): Conv2d(512, 512, kernel_size=(1, 3), stride=(1, 1), padding=(0, 1), bias=False)
  (bn2): BatchNorm2d(512, eps=1e-05, momentum=0.1, affine=True, track_running_stats=True)
  (resconv2): Conv2d(1024, 1024, kernel_size=(1, 1), stride=(2, 2))
  (conv3): Conv2d(1024, 1024, kernel_size=(3, 3), stride=(2, 2), padding=(1, 1))
  (conv3_2): Conv2d(1024, 1024, kernel_size=(3, 1), stride=(2, 2), padding=(1, 0), bias=False)
  (conv3_3): Conv2d(1024, 1024, kernel_size=(1, 3), stride=(2, 2), padding=(0, 1), bias=False)
  (bn3): BatchNorm2d(1024, eps=1e-05, momentum=0.1, affine=True, track_running_stats=True)
  (conv4): Conv2d(1024, 1024, kernel_size=(3, 3), stride=(1, 1), padding=(1, 1))
  (conv4_2): Conv2d(1024, 1024, kernel_size=(3, 1), stride=(1, 1), padding=(1, 0), bias=False)
  (conv4_3): Conv2d(1024, 1024, kernel_size=(1, 3), stride=(1, 1), padding=(0, 1), bias=False)
  (bn4): BatchNorm2d(1024, eps=1e-05, momentum=0.1, affine=True, track_running_stats=True)
  (resconv4): Conv2d(2048, 2048, kernel_size=(1, 1), stride=(2, 2))
  (conv5): Conv2d(2048, 2048, kernel_size=(3, 3), stride=(2, 2), padding=(1, 1))
  (conv5_2): Conv2d(2048, 2048, kernel_size=(3, 1), stride=(2, 2), padding=(1, 0), bias=False)
  (conv5_3): Conv2d(2048, 2048, kernel_size=(1, 3), stride=(2, 2), padding=(0, 1), bias=False)
  (bn5): BatchNorm2d(2048, eps=1e-05, momentum=0.1, affine=True, track_running_stats=True)
  (conv6): Conv2d(2048, 2048, kernel_size=(3, 3), stride=(1, 1), padding=(1, 1))
  (conv6_2): Conv2d(2048, 2048, kernel_size=(3, 1), stride=(1, 1), padding=(1, 0), bias=False)
  (conv6_3): Conv2d(2048, 2048, kernel_size=(1, 3), stride=(1, 1), padding=(0, 1), bias=False)
  (bn6): BatchNorm2d(2048, eps=1e-05, momentum=0.1, affine=True, track_running_stats=True)
  (conv11): Conv2d(4096, 512, kernel_size=(3, 3), stride=(1, 1), padding=(1, 1), padding_mode=reflect)
  (conv12): Conv2d(512, 128, kernel_size=(3, 3), stride=(1, 1), padding=(1, 1), padding_mode=reflect)
  (GP_conv0): Conv2d(384, 512, kernel_size=(1, 1), stride=(1, 1))
  (GP_pool1): AdaptiveMaxPool2d(output_size=(6, 6))
  (GP_conv1): Conv2d(384, 1024, kernel_size=(1, 1), stride=(1, 1))
  (GP_pool2): AdaptiveMaxPool2d(output_size=(3, 3))
  (GP_conv2): Conv2d(384, 2048, kernel_size=(1, 1), stride=(1, 1))
)
[2022-07-16 23:08:21,202][feature_train_ori.py][L121][INFO] Epoch 0 begin
[2022-07-16 23:09:36,491][feature_train_ori.py][L341][INFO] Step [1/2500000=0.00%] | Epoch 0 | Time 74.825 (74.825) | Lr 0.0001 | AIC Loss 0.02702 (0.02702) | All Losses 1.44192 (1.44192)
[2022-07-16 23:10:49,896][feature_train_ori.py][L341][INFO] Step [2/2500000=0.00%] | Epoch 0 | Time 73.385 (73.385) | Lr 0.0001 | AIC Loss 0.38609 (0.38609) | All Losses 0.41133 (0.41133)
…
[2022-07-16 23:47:58,168][feature_train_ori.py][L341][INFO] Step [21/2500000=0.00%] | Epoch 0 | Time 69.740 (69.740) | Lr 0.0001 | AIC Loss 0.03475 (0.03475) | All Losses 0.13098 (0.13098)
[2022-07-16 23:49:08,700][feature_train_ori.py][L341][INFO] Step [22/2500000=0.00%] | Epoch 0 | Time 70.514 (70.514) | Lr 0.0001 | AIC Loss 0.02823 (0.02823) | All Losses 0.12616 (0.12616)
[2022-07-21 21:55:28,522][feature_train_ori.py][L371][INFO] Auto Encoder training
[2022-07-21 21:55:28,523][feature_train_ori.py][L372][INFO] Encoder & Decoder Model : 
[2022-07-21 21:55:36,637][feature_train_ori.py][L383][INFO] Concatenation(
  (relu): LeakyReLU(negative_slope=0.01)
  (conv): Conv2d(384, 512, kernel_size=(3, 3), stride=(1, 1), padding=(1, 1))
  (conv1): Conv2d(512, 512, kernel_size=(3, 3), stride=(1, 1), padding=(1, 1))
  (conv1_2): Conv2d(512, 512, kernel_size=(3, 1), stride=(1, 1), padding=(1, 0), bias=False)
  (conv1_3): Conv2d(512, 512, kernel_size=(1, 3), stride=(1, 1), padding=(0, 1), bias=False)
  (bn1): BatchNorm2d(512, eps=1e-05, momentum=0.1, affine=True, track_running_stats=True)
  (conv2): Conv2d(512, 512, kernel_size=(3, 3), stride=(1, 1), padding=(1, 1))
  (conv2_2): Conv2d(512, 512, kernel_size=(3, 1), stride=(1, 1), padding=(1, 0), bias=False)
  (conv2_3): Conv2d(512, 512, kernel_size=(1, 3), stride=(1, 1), padding=(0, 1), bias=False)
  (resconv2): Conv2d(1024, 1024, kernel_size=(1, 1), stride=(2, 2))
  (bn2): BatchNorm2d(512, eps=1e-05, momentum=0.1, affine=True, track_running_stats=True)
  (conv3): Conv2d(1024, 1024, kernel_size=(3, 3), stride=(2, 2), padding=(1, 1))
  (conv3_2): Conv2d(1024, 1024, kernel_size=(3, 1), stride=(2, 2), padding=(1, 0), bias=False)
  (conv3_3): Conv2d(1024, 1024, kernel_size=(1, 3), stride=(2, 2), padding=(0, 1), bias=False)
  (bn3): BatchNorm2d(1024, eps=1e-05, momentum=0.1, affine=True, track_running_stats=True)
  (conv4): Conv2d(1024, 1024, kernel_size=(3, 3), stride=(1, 1), padding=(1, 1))
  (conv4_2): Conv2d(1024, 1024, kernel_size=(3, 1), stride=(1, 1), padding=(1, 0), bias=False)
  (conv4_3): Conv2d(1024, 1024, kernel_size=(1, 3), stride=(1, 1), padding=(0, 1), bias=False)
  (resconv4): Conv2d(2048, 2048, kernel_size=(1, 1), stride=(2, 2))
  (bn4): BatchNorm2d(1024, eps=1e-05, momentum=0.1, affine=True, track_running_stats=True)
  (conv5): Conv2d(2048, 2048, kernel_size=(3, 3), stride=(2, 2), padding=(1, 1))
  (conv5_2): Conv2d(2048, 2048, kernel_size=(3, 1), stride=(2, 2), padding=(1, 0), bias=False)
  (conv5_3): Conv2d(2048, 2048, kernel_size=(1, 3), stride=(2, 2), padding=(0, 1), bias=False)
  (bn5): BatchNorm2d(2048, eps=1e-05, momentum=0.1, affine=True, track_running_stats=True)
  (conv6): Conv2d(2048, 2048, kernel_size=(3, 3), stride=(1, 1), padding=(1, 1))
  (conv6_2): Conv2d(2048, 2048, kernel_size=(3, 1), stride=(1, 1), padding=(1, 0), bias=False)
  (conv6_3): Conv2d(2048, 2048, kernel_size=(1, 3), stride=(1, 1), padding=(0, 1), bias=False)
  (bn6): BatchNorm2d(2048, eps=1e-05, momentum=0.1, affine=True, track_running_stats=True)
  (conv11): ConvTranspose2d(4096, 512, kernel_size=(3, 3), stride=(2, 2), padding=(1, 1), output_padding=(1, 1))
  (conv11_1): Conv2d(512, 512, kernel_size=(3, 3), stride=(1, 1), padding=(1, 1))
  (deconv_bn1): BatchNorm2d(512, eps=1e-05, momentum=0.1, affine=True, track_running_stats=True)
  (conv12): ConvTranspose2d(512, 128, kernel_size=(3, 3), stride=(2, 2), padding=(1, 1), output_padding=(1, 1))
  (conv12_1): Conv2d(128, 128, kernel_size=(3, 3), stride=(1, 1), padding=(1, 1))
  (deconv_bn2): BatchNorm2d(128, eps=1e-05, momentum=0.1, affine=True, track_running_stats=True)
  (GP_conv0): Conv2d(384, 512, kernel_size=(1, 1), stride=(1, 1))
  (GP_pool1): AdaptiveMaxPool2d(output_size=(6, 6))
  (GP_conv1): Conv2d(384, 1024, kernel_size=(1, 1), stride=(1, 1))
  (GP_pool2): AdaptiveMaxPool2d(output_size=(3, 3))
  (GP_conv2): Conv2d(384, 2048, kernel_size=(1, 1), stride=(1, 1))
)
[2022-07-21 21:55:46,362][feature_train_ori.py][L121][INFO] Epoch 0 begin
[2022-07-21 21:56:54,036][feature_train_ori.py][L371][INFO] Auto Encoder training
[2022-07-21 21:56:54,036][feature_train_ori.py][L372][INFO] Encoder & Decoder Model : 
[2022-07-21 21:56:59,866][feature_train_ori.py][L383][INFO] Concatenation(
  (relu): LeakyReLU(negative_slope=0.01)
  (conv): Conv2d(384, 512, kernel_size=(3, 3), stride=(1, 1), padding=(1, 1))
  (conv1): Conv2d(512, 512, kernel_size=(3, 3), stride=(1, 1), padding=(1, 1))
  (conv1_2): Conv2d(512, 512, kernel_size=(3, 1), stride=(1, 1), padding=(1, 0), bias=False)
  (conv1_3): Conv2d(512, 512, kernel_size=(1, 3), stride=(1, 1), padding=(0, 1), bias=False)
  (bn1): BatchNorm2d(512, eps=1e-05, momentum=0.1, affine=True, track_running_stats=True)
  (conv2): Conv2d(512, 512, kernel_size=(3, 3), stride=(1, 1), padding=(1, 1))
  (conv2_2): Conv2d(512, 512, kernel_size=(3, 1), stride=(1, 1), padding=(1, 0), bias=False)
  (conv2_3): Conv2d(512, 512, kernel_size=(1, 3), stride=(1, 1), padding=(0, 1), bias=False)
  (resconv2): Conv2d(1024, 1024, kernel_size=(1, 1), stride=(2, 2))
  (bn2): BatchNorm2d(512, eps=1e-05, momentum=0.1, affine=True, track_running_stats=True)
  (conv3): Conv2d(1024, 1024, kernel_size=(3, 3), stride=(2, 2), padding=(1, 1))
  (conv3_2): Conv2d(1024, 1024, kernel_size=(3, 1), stride=(2, 2), padding=(1, 0), bias=False)
  (conv3_3): Conv2d(1024, 1024, kernel_size=(1, 3), stride=(2, 2), padding=(0, 1), bias=False)
  (bn3): BatchNorm2d(1024, eps=1e-05, momentum=0.1, affine=True, track_running_stats=True)
  (conv4): Conv2d(1024, 1024, kernel_size=(3, 3), stride=(1, 1), padding=(1, 1))
  (conv4_2): Conv2d(1024, 1024, kernel_size=(3, 1), stride=(1, 1), padding=(1, 0), bias=False)
  (conv4_3): Conv2d(1024, 1024, kernel_size=(1, 3), stride=(1, 1), padding=(0, 1), bias=False)
  (resconv4): Conv2d(2048, 2048, kernel_size=(1, 1), stride=(2, 2))
  (bn4): BatchNorm2d(1024, eps=1e-05, momentum=0.1, affine=True, track_running_stats=True)
  (conv5): Conv2d(2048, 2048, kernel_size=(3, 3), stride=(2, 2), padding=(1, 1))
  (conv5_2): Conv2d(2048, 2048, kernel_size=(3, 1), stride=(2, 2), padding=(1, 0), bias=False)
  (conv5_3): Conv2d(2048, 2048, kernel_size=(1, 3), stride=(2, 2), padding=(0, 1), bias=False)
  (bn5): BatchNorm2d(2048, eps=1e-05, momentum=0.1, affine=True, track_running_stats=True)
  (conv6): Conv2d(2048, 2048, kernel_size=(3, 3), stride=(1, 1), padding=(1, 1))
  (conv6_2): Conv2d(2048, 2048, kernel_size=(3, 1), stride=(1, 1), padding=(1, 0), bias=False)
  (conv6_3): Conv2d(2048, 2048, kernel_size=(1, 3), stride=(1, 1), padding=(0, 1), bias=False)
  (bn6): BatchNorm2d(2048, eps=1e-05, momentum=0.1, affine=True, track_running_stats=True)
  (conv11): ConvTranspose2d(4096, 512, kernel_size=(3, 3), stride=(2, 2), padding=(1, 1), output_padding=(1, 1))
  (conv11_1): Conv2d(512, 512, kernel_size=(3, 3), stride=(1, 1), padding=(1, 1))
  (deconv_bn1): BatchNorm2d(512, eps=1e-05, momentum=0.1, affine=True, track_running_stats=True)
  (conv12): ConvTranspose2d(512, 128, kernel_size=(3, 3), stride=(2, 2), padding=(1, 1), output_padding=(1, 1))
  (conv12_1): Conv2d(128, 128, kernel_size=(3, 3), stride=(1, 1), padding=(1, 1))
  (deconv_bn2): BatchNorm2d(128, eps=1e-05, momentum=0.1, affine=True, track_running_stats=True)
  (GP_conv0): Conv2d(384, 512, kernel_size=(1, 1), stride=(1, 1))
  (GP_pool1): AdaptiveMaxPool2d(output_size=(6, 6))
  (GP_conv1): Conv2d(384, 1024, kernel_size=(1, 1), stride=(1, 1))
  (GP_pool2): AdaptiveMaxPool2d(output_size=(3, 3))
  (GP_conv2): Conv2d(384, 2048, kernel_size=(1, 1), stride=(1, 1))
)
[2022-07-21 21:57:06,925][feature_train_ori.py][L121][INFO] Epoch 0 begin
[2022-07-21 21:58:18,660][feature_train_ori.py][L341][INFO] Step [1/2500000=0.00%] | Epoch 0 | Time 71.245 (71.245) | Lr 0.0001 | AIC Loss 0.02253 (0.02253) | All Losses 0.28396 (0.28396)
[2022-07-21 21:59:30,023][feature_train_ori.py][L341][INFO] Step [2/2500000=0.00%] | Epoch 0 | Time 71.347 (71.347) | Lr 0.0001 | AIC Loss 0.08497 (0.08497) | All Losses 0.21675 (0.21675)
…
[2022-07-21 22:44:49,375][feature_train_ori.py][L341][INFO] Step [41/2500000=0.00%] | Epoch 0 | Time 69.830 (69.830) | Lr 0.0001 | AIC Loss 0.07816 (0.07816) | All Losses 0.18769 (0.18769)
[2022-07-22 08:53:38,485][feature_train_ori.py][L371][INFO] Auto Encoder training
[2022-07-22 08:53:38,486][feature_train_ori.py][L372][INFO] Encoder & Decoder Model : 
[2022-07-22 08:54:00,502][feature_train_ori.py][L371][INFO] Auto Encoder training
[2022-07-22 08:54:00,502][feature_train_ori.py][L372][INFO] Encoder & Decoder Model : 
[2022-07-22 08:54:06,445][feature_train_ori.py][L383][INFO] Concatenation(
  (relu): LeakyReLU(negative_slope=0.01)
  (conv): Conv2d(384, 512, kernel_size=(3, 3), stride=(1, 1), padding=(1, 1))
  (conv1): Conv2d(512, 512, kernel_size=(3, 3), stride=(1, 1), padding=(1, 1))
  (conv1_2): Conv2d(512, 512, kernel_size=(3, 1), stride=(1, 1), padding=(1, 0), bias=False)
  (conv1_3): Conv2d(512, 512, kernel_size=(1, 3), stride=(1, 1), padding=(0, 1), bias=False)
  (bn1): BatchNorm2d(512, eps=1e-05, momentum=0.1, affine=True, track_running_stats=True)
  (conv2): Conv2d(512, 512, kernel_size=(3, 3), stride=(1, 1), padding=(1, 1))
  (conv2_2): Conv2d(512, 512, kernel_size=(3, 1), stride=(1, 1), padding=(1, 0), bias=False)
  (conv2_3): Conv2d(512, 512, kernel_size=(1, 3), stride=(1, 1), padding=(0, 1), bias=False)
  (resconv2): Conv2d(1024, 1024, kernel_size=(1, 1), stride=(2, 2))
  (bn2): BatchNorm2d(512, eps=1e-05, momentum=0.1, affine=True, track_running_stats=True)
  (conv3): Conv2d(1024, 1024, kernel_size=(3, 3), stride=(2, 2), padding=(1, 1))
  (conv3_2): Conv2d(1024, 1024, kernel_size=(3, 1), stride=(2, 2), padding=(1, 0), bias=False)
  (conv3_3): Conv2d(1024, 1024, kernel_size=(1, 3), stride=(2, 2), padding=(0, 1), bias=False)
  (bn3): BatchNorm2d(1024, eps=1e-05, momentum=0.1, affine=True, track_running_stats=True)
  (conv4): Conv2d(1024, 1024, kernel_size=(3, 3), stride=(1, 1), padding=(1, 1))
  (conv4_2): Conv2d(1024, 1024, kernel_size=(3, 1), stride=(1, 1), padding=(1, 0), bias=False)
  (conv4_3): Conv2d(1024, 1024, kernel_size=(1, 3), stride=(1, 1), padding=(0, 1), bias=False)
  (resconv4): Conv2d(2048, 2048, kernel_size=(1, 1), stride=(2, 2))
  (bn4): BatchNorm2d(1024, eps=1e-05, momentum=0.1, affine=True, track_running_stats=True)
  (conv5): Conv2d(2048, 2048, kernel_size=(3, 3), stride=(2, 2), padding=(1, 1))
  (conv5_2): Conv2d(2048, 2048, kernel_size=(3, 1), stride=(2, 2), padding=(1, 0), bias=False)
  (conv5_3): Conv2d(2048, 2048, kernel_size=(1, 3), stride=(2, 2), padding=(0, 1), bias=False)
  (bn5): BatchNorm2d(2048, eps=1e-05, momentum=0.1, affine=True, track_running_stats=True)
  (conv6): Conv2d(2048, 2048, kernel_size=(3, 3), stride=(1, 1), padding=(1, 1))
  (conv6_2): Conv2d(2048, 2048, kernel_size=(3, 1), stride=(1, 1), padding=(1, 0), bias=False)
  (conv6_3): Conv2d(2048, 2048, kernel_size=(1, 3), stride=(1, 1), padding=(0, 1), bias=False)
  (bn6): BatchNorm2d(2048, eps=1e-05, momentum=0.1, affine=True, track_running_stats=True)
  (conv11): Conv2d(4096, 512, kernel_size=(3, 3), stride=(2, 2), padding=(1, 1))
  (conv11_1): Conv2d(512, 512, kernel_size=(3, 3), stride=(1, 1), padding=(1, 1))
  (deconv_bn1): BatchNorm2d(512, eps=1e-05, momentum=0.1, affine=True, track_running_stats=True)
  (conv12): Conv2d(512, 128, kernel_size=(3, 3), stride=(2, 2), padding=(1, 1))
  (conv12_1): Conv2d(128, 128, kernel_size=(3, 3), stride=(1, 1), padding=(1, 1))
  (deconv_bn2): BatchNorm2d(128, eps=1e-05, momentum=0.1, affine=True, track_running_stats=True)
  (GP_conv0): Conv2d(384, 512, kernel_size=(1, 1), stride=(1, 1))
  (GP_pool1): AdaptiveMaxPool2d(output_size=(6, 6))
  (GP_conv1): Conv2d(384, 1024, kernel_size=(1, 1), stride=(1, 1))
  (GP_pool2): AdaptiveMaxPool2d(output_size=(3, 3))
  (GP_conv2): Conv2d(384, 2048, kernel_size=(1, 1), stride=(1, 1))
)
[2022-07-22 08:54:13,447][feature_train_ori.py][L121][INFO] Epoch 0 begin
[2022-07-22 08:55:26,028][feature_train_ori.py][L341][INFO] Step [1/2500000=0.00%] | Epoch 0 | Time 72.126 (72.126) | Lr 0.0001 | AIC Loss 0.00455 (0.00455) | All Losses 0.35224 (0.35224)
[2022-07-22 08:56:37,136][feature_train_ori.py][L341][INFO] Step [2/2500000=0.00%] | Epoch 0 | Time 71.091 (71.091) | Lr 0.0001 | AIC Loss 0.03498 (0.03498) | All Losses 0.24587 (0.24587)
…
[2022-07-22 09:17:14,753][feature_train_ori.py][L341][INFO] Step [20/2500000=0.00%] | Epoch 0 | Time 68.000 (68.000) | Lr 0.0001 | AIC Loss 0.07237 (0.07237) | All Losses 0.22380 (0.22380)
[2022-07-22 09:26:52,384][feature_train_ori.py][L371][INFO] Auto Encoder training
[2022-07-22 09:26:52,384][feature_train_ori.py][L372][INFO] Encoder & Decoder Model : 
[2022-07-22 09:27:14,669][feature_train_ori.py][L371][INFO] Auto Encoder training
[2022-07-22 09:27:14,669][feature_train_ori.py][L372][INFO] Encoder & Decoder Model : 
[2022-07-22 09:27:20,518][feature_train_ori.py][L383][INFO] Concatenation(
  (relu): LeakyReLU(negative_slope=0.01)
  (conv): Conv2d(384, 512, kernel_size=(3, 3), stride=(1, 1), padding=(1, 1))
  (conv1): Conv2d(512, 512, kernel_size=(3, 3), stride=(1, 1), padding=(1, 1))
  (conv1_2): Conv2d(512, 512, kernel_size=(3, 1), stride=(1, 1), padding=(1, 0), bias=False)
  (conv1_3): Conv2d(512, 512, kernel_size=(1, 3), stride=(1, 1), padding=(0, 1), bias=False)
  (bn1): BatchNorm2d(512, eps=1e-05, momentum=0.1, affine=True, track_running_stats=True)
  (conv2): Conv2d(512, 512, kernel_size=(3, 3), stride=(1, 1), padding=(1, 1))
  (conv2_2): Conv2d(512, 512, kernel_size=(3, 1), stride=(1, 1), padding=(1, 0), bias=False)
  (conv2_3): Conv2d(512, 512, kernel_size=(1, 3), stride=(1, 1), padding=(0, 1), bias=False)
  (resconv2): Conv2d(1024, 1024, kernel_size=(1, 1), stride=(2, 2))
  (bn2): BatchNorm2d(512, eps=1e-05, momentum=0.1, affine=True, track_running_stats=True)
  (conv3): Conv2d(1024, 1024, kernel_size=(3, 3), stride=(2, 2), padding=(1, 1))
  (conv3_2): Conv2d(1024, 1024, kernel_size=(3, 1), stride=(2, 2), padding=(1, 0), bias=False)
  (conv3_3): Conv2d(1024, 1024, kernel_size=(1, 3), stride=(2, 2), padding=(0, 1), bias=False)
  (bn3): BatchNorm2d(1024, eps=1e-05, momentum=0.1, affine=True, track_running_stats=True)
  (conv4): Conv2d(1024, 1024, kernel_size=(3, 3), stride=(1, 1), padding=(1, 1))
  (conv4_2): Conv2d(1024, 1024, kernel_size=(3, 1), stride=(1, 1), padding=(1, 0), bias=False)
  (conv4_3): Conv2d(1024, 1024, kernel_size=(1, 3), stride=(1, 1), padding=(0, 1), bias=False)
  (resconv4): Conv2d(2048, 2048, kernel_size=(1, 1), stride=(2, 2))
  (bn4): BatchNorm2d(1024, eps=1e-05, momentum=0.1, affine=True, track_running_stats=True)
  (conv5): Conv2d(2048, 2048, kernel_size=(3, 3), stride=(2, 2), padding=(1, 1))
  (conv5_2): Conv2d(2048, 2048, kernel_size=(3, 1), stride=(2, 2), padding=(1, 0), bias=False)
  (conv5_3): Conv2d(2048, 2048, kernel_size=(1, 3), stride=(2, 2), padding=(0, 1), bias=False)
  (bn5): BatchNorm2d(2048, eps=1e-05, momentum=0.1, affine=True, track_running_stats=True)
  (conv6): Conv2d(2048, 2048, kernel_size=(3, 3), stride=(1, 1), padding=(1, 1))
  (conv6_2): Conv2d(2048, 2048, kernel_size=(3, 1), stride=(1, 1), padding=(1, 0), bias=False)
  (conv6_3): Conv2d(2048, 2048, kernel_size=(1, 3), stride=(1, 1), padding=(0, 1), bias=False)
  (bn6): BatchNorm2d(2048, eps=1e-05, momentum=0.1, affine=True, track_running_stats=True)
  (deconv1): ConvTranspose2d(4096, 512, kernel_size=(3, 3), stride=(2, 2), padding=(1, 1), output_padding=(1, 1))
  (conv11_1): Conv2d(512, 512, kernel_size=(3, 3), stride=(1, 1), padding=(1, 1))
  (deconv_bn1): BatchNorm2d(512, eps=1e-05, momentum=0.1, affine=True, track_running_stats=True)
  (deconv2): ConvTranspose2d(512, 128, kernel_size=(3, 3), stride=(2, 2), padding=(1, 1), output_padding=(1, 1))
  (conv12_1): Conv2d(128, 128, kernel_size=(3, 3), stride=(1, 1), padding=(1, 1))
  (deconv_bn2): BatchNorm2d(128, eps=1e-05, momentum=0.1, affine=True, track_running_stats=True)
  (GP_conv0): Conv2d(384, 512, kernel_size=(1, 1), stride=(1, 1))
  (GP_pool1): AdaptiveMaxPool2d(output_size=(6, 6))
  (GP_conv1): Conv2d(384, 1024, kernel_size=(1, 1), stride=(1, 1))
  (GP_pool2): AdaptiveMaxPool2d(output_size=(3, 3))
  (GP_conv2): Conv2d(384, 2048, kernel_size=(1, 1), stride=(1, 1))
)
[2022-07-22 09:27:27,568][feature_train_ori.py][L121][INFO] Epoch 0 begin
[2022-07-22 09:28:51,170][feature_train_ori.py][L371][INFO] Auto Encoder training
[2022-07-22 09:28:51,171][feature_train_ori.py][L372][INFO] Encoder & Decoder Model : 
[2022-07-22 09:28:57,079][feature_train_ori.py][L383][INFO] Concatenation(
  (relu): LeakyReLU(negative_slope=0.01)
  (conv): Conv2d(384, 512, kernel_size=(3, 3), stride=(1, 1), padding=(1, 1))
  (conv1): Conv2d(512, 512, kernel_size=(3, 3), stride=(1, 1), padding=(1, 1))
  (conv1_2): Conv2d(512, 512, kernel_size=(3, 1), stride=(1, 1), padding=(1, 0), bias=False)
  (conv1_3): Conv2d(512, 512, kernel_size=(1, 3), stride=(1, 1), padding=(0, 1), bias=False)
  (bn1): BatchNorm2d(512, eps=1e-05, momentum=0.1, affine=True, track_running_stats=True)
  (conv2): Conv2d(512, 512, kernel_size=(3, 3), stride=(1, 1), padding=(1, 1))
  (conv2_2): Conv2d(512, 512, kernel_size=(3, 1), stride=(1, 1), padding=(1, 0), bias=False)
  (conv2_3): Conv2d(512, 512, kernel_size=(1, 3), stride=(1, 1), padding=(0, 1), bias=False)
  (resconv2): Conv2d(1024, 1024, kernel_size=(1, 1), stride=(2, 2))
  (bn2): BatchNorm2d(512, eps=1e-05, momentum=0.1, affine=True, track_running_stats=True)
  (conv3): Conv2d(1024, 1024, kernel_size=(3, 3), stride=(2, 2), padding=(1, 1))
  (conv3_2): Conv2d(1024, 1024, kernel_size=(3, 1), stride=(2, 2), padding=(1, 0), bias=False)
  (conv3_3): Conv2d(1024, 1024, kernel_size=(1, 3), stride=(2, 2), padding=(0, 1), bias=False)
  (bn3): BatchNorm2d(1024, eps=1e-05, momentum=0.1, affine=True, track_running_stats=True)
  (conv4): Conv2d(1024, 1024, kernel_size=(3, 3), stride=(1, 1), padding=(1, 1))
  (conv4_2): Conv2d(1024, 1024, kernel_size=(3, 1), stride=(1, 1), padding=(1, 0), bias=False)
  (conv4_3): Conv2d(1024, 1024, kernel_size=(1, 3), stride=(1, 1), padding=(0, 1), bias=False)
  (resconv4): Conv2d(2048, 2048, kernel_size=(1, 1), stride=(2, 2))
  (bn4): BatchNorm2d(1024, eps=1e-05, momentum=0.1, affine=True, track_running_stats=True)
  (conv5): Conv2d(2048, 2048, kernel_size=(3, 3), stride=(2, 2), padding=(1, 1))
  (conv5_2): Conv2d(2048, 2048, kernel_size=(3, 1), stride=(2, 2), padding=(1, 0), bias=False)
  (conv5_3): Conv2d(2048, 2048, kernel_size=(1, 3), stride=(2, 2), padding=(0, 1), bias=False)
  (bn5): BatchNorm2d(2048, eps=1e-05, momentum=0.1, affine=True, track_running_stats=True)
  (conv6): Conv2d(2048, 2048, kernel_size=(3, 3), stride=(1, 1), padding=(1, 1))
  (conv6_2): Conv2d(2048, 2048, kernel_size=(3, 1), stride=(1, 1), padding=(1, 0), bias=False)
  (conv6_3): Conv2d(2048, 2048, kernel_size=(1, 3), stride=(1, 1), padding=(0, 1), bias=False)
  (bn6): BatchNorm2d(2048, eps=1e-05, momentum=0.1, affine=True, track_running_stats=True)
  (deconv1): ConvTranspose2d(4096, 512, kernel_size=(3, 3), stride=(2, 2), padding=(1, 1), output_padding=(1, 1))
  (conv11_1): Conv2d(512, 512, kernel_size=(3, 3), stride=(1, 1), padding=(1, 1))
  (deconv_bn1): BatchNorm2d(512, eps=1e-05, momentum=0.1, affine=True, track_running_stats=True)
  (deconv2): ConvTranspose2d(512, 128, kernel_size=(3, 3), stride=(2, 2), padding=(1, 1), output_padding=(1, 1))
  (conv12_1): Conv2d(128, 128, kernel_size=(3, 3), stride=(1, 1), padding=(1, 1))
  (deconv_bn2): BatchNorm2d(128, eps=1e-05, momentum=0.1, affine=True, track_running_stats=True)
  (GP_conv0): Conv2d(384, 512, kernel_size=(1, 1), stride=(1, 1))
  (GP_pool1): AdaptiveMaxPool2d(output_size=(6, 6))
  (GP_conv1): Conv2d(384, 1024, kernel_size=(1, 1), stride=(1, 1))
  (GP_pool2): AdaptiveMaxPool2d(output_size=(3, 3))
  (GP_conv2): Conv2d(384, 2048, kernel_size=(1, 1), stride=(1, 1))
)
[2022-07-22 09:29:04,115][feature_train_ori.py][L121][INFO] Epoch 0 begin
[2022-07-22 09:30:30,179][feature_train_ori.py][L371][INFO] Auto Encoder training
[2022-07-22 09:30:30,179][feature_train_ori.py][L372][INFO] Encoder & Decoder Model : 
[2022-07-22 09:30:36,072][feature_train_ori.py][L383][INFO] Concatenation(
  (relu): LeakyReLU(negative_slope=0.01)
  (conv): Conv2d(384, 512, kernel_size=(3, 3), stride=(1, 1), padding=(1, 1))
  (conv1): Conv2d(512, 512, kernel_size=(3, 3), stride=(1, 1), padding=(1, 1))
  (conv1_2): Conv2d(512, 512, kernel_size=(3, 1), stride=(1, 1), padding=(1, 0), bias=False)
  (conv1_3): Conv2d(512, 512, kernel_size=(1, 3), stride=(1, 1), padding=(0, 1), bias=False)
  (bn1): BatchNorm2d(512, eps=1e-05, momentum=0.1, affine=True, track_running_stats=True)
  (conv2): Conv2d(512, 512, kernel_size=(3, 3), stride=(1, 1), padding=(1, 1))
  (conv2_2): Conv2d(512, 512, kernel_size=(3, 1), stride=(1, 1), padding=(1, 0), bias=False)
  (conv2_3): Conv2d(512, 512, kernel_size=(1, 3), stride=(1, 1), padding=(0, 1), bias=False)
  (resconv2): Conv2d(1024, 1024, kernel_size=(1, 1), stride=(2, 2))
  (bn2): BatchNorm2d(512, eps=1e-05, momentum=0.1, affine=True, track_running_stats=True)
  (conv3): Conv2d(1024, 1024, kernel_size=(3, 3), stride=(2, 2), padding=(1, 1))
  (conv3_2): Conv2d(1024, 1024, kernel_size=(3, 1), stride=(2, 2), padding=(1, 0), bias=False)
  (conv3_3): Conv2d(1024, 1024, kernel_size=(1, 3), stride=(2, 2), padding=(0, 1), bias=False)
  (bn3): BatchNorm2d(1024, eps=1e-05, momentum=0.1, affine=True, track_running_stats=True)
  (conv4): Conv2d(1024, 1024, kernel_size=(3, 3), stride=(1, 1), padding=(1, 1))
  (conv4_2): Conv2d(1024, 1024, kernel_size=(3, 1), stride=(1, 1), padding=(1, 0), bias=False)
  (conv4_3): Conv2d(1024, 1024, kernel_size=(1, 3), stride=(1, 1), padding=(0, 1), bias=False)
  (resconv4): Conv2d(2048, 2048, kernel_size=(1, 1), stride=(2, 2))
  (bn4): BatchNorm2d(1024, eps=1e-05, momentum=0.1, affine=True, track_running_stats=True)
  (conv5): Conv2d(2048, 2048, kernel_size=(3, 3), stride=(2, 2), padding=(1, 1))
  (conv5_2): Conv2d(2048, 2048, kernel_size=(3, 1), stride=(2, 2), padding=(1, 0), bias=False)
  (conv5_3): Conv2d(2048, 2048, kernel_size=(1, 3), stride=(2, 2), padding=(0, 1), bias=False)
  (bn5): BatchNorm2d(2048, eps=1e-05, momentum=0.1, affine=True, track_running_stats=True)
  (conv6): Conv2d(2048, 2048, kernel_size=(3, 3), stride=(1, 1), padding=(1, 1))
  (conv6_2): Conv2d(2048, 2048, kernel_size=(3, 1), stride=(1, 1), padding=(1, 0), bias=False)
  (conv6_3): Conv2d(2048, 2048, kernel_size=(1, 3), stride=(1, 1), padding=(0, 1), bias=False)
  (bn6): BatchNorm2d(2048, eps=1e-05, momentum=0.1, affine=True, track_running_stats=True)
  (deconv1): ConvTranspose2d(4096, 512, kernel_size=(3, 3), stride=(2, 2), padding=(1, 1), output_padding=(1, 1))
  (conv11_1): Conv2d(512, 512, kernel_size=(3, 3), stride=(1, 1), padding=(1, 1))
  (deconv_bn1): BatchNorm2d(512, eps=1e-05, momentum=0.1, affine=True, track_running_stats=True)
  (deconv2): ConvTranspose2d(512, 128, kernel_size=(3, 3), stride=(2, 2), padding=(1, 1), output_padding=(1, 1))
  (conv12_1): Conv2d(128, 128, kernel_size=(3, 3), stride=(1, 1), padding=(1, 1))
  (deconv_bn2): BatchNorm2d(128, eps=1e-05, momentum=0.1, affine=True, track_running_stats=True)
  (GP_conv0): Conv2d(384, 512, kernel_size=(1, 1), stride=(1, 1))
  (GP_pool1): AdaptiveMaxPool2d(output_size=(6, 6))
  (GP_conv1): Conv2d(384, 1024, kernel_size=(1, 1), stride=(1, 1))
  (GP_pool2): AdaptiveMaxPool2d(output_size=(3, 3))
  (GP_conv2): Conv2d(384, 2048, kernel_size=(1, 1), stride=(1, 1))
)
[2022-07-22 09:30:43,146][feature_train_ori.py][L121][INFO] Epoch 0 begin
[2022-07-22 09:33:18,016][feature_train_ori.py][L371][INFO] Auto Encoder training
[2022-07-22 09:33:18,016][feature_train_ori.py][L372][INFO] Encoder & Decoder Model : 
[2022-07-22 09:33:24,455][feature_train_ori.py][L383][INFO] Concatenation(
  (relu): LeakyReLU(negative_slope=0.01)
  (conv): Conv2d(384, 512, kernel_size=(3, 3), stride=(1, 1), padding=(1, 1))
  (conv1): Conv2d(512, 512, kernel_size=(3, 3), stride=(1, 1), padding=(1, 1))
  (conv1_2): Conv2d(512, 512, kernel_size=(3, 1), stride=(1, 1), padding=(1, 0), bias=False)
  (conv1_3): Conv2d(512, 512, kernel_size=(1, 3), stride=(1, 1), padding=(0, 1), bias=False)
  (bn1): BatchNorm2d(512, eps=1e-05, momentum=0.1, affine=True, track_running_stats=True)
  (conv2): Conv2d(512, 512, kernel_size=(3, 3), stride=(1, 1), padding=(1, 1))
  (conv2_2): Conv2d(512, 512, kernel_size=(3, 1), stride=(1, 1), padding=(1, 0), bias=False)
  (conv2_3): Conv2d(512, 512, kernel_size=(1, 3), stride=(1, 1), padding=(0, 1), bias=False)
  (resconv2): Conv2d(1024, 1024, kernel_size=(1, 1), stride=(2, 2))
  (bn2): BatchNorm2d(512, eps=1e-05, momentum=0.1, affine=True, track_running_stats=True)
  (conv3): Conv2d(1024, 1024, kernel_size=(3, 3), stride=(2, 2), padding=(1, 1))
  (conv3_2): Conv2d(1024, 1024, kernel_size=(3, 1), stride=(2, 2), padding=(1, 0), bias=False)
  (conv3_3): Conv2d(1024, 1024, kernel_size=(1, 3), stride=(2, 2), padding=(0, 1), bias=False)
  (bn3): BatchNorm2d(1024, eps=1e-05, momentum=0.1, affine=True, track_running_stats=True)
  (conv4): Conv2d(1024, 1024, kernel_size=(3, 3), stride=(1, 1), padding=(1, 1))
  (conv4_2): Conv2d(1024, 1024, kernel_size=(3, 1), stride=(1, 1), padding=(1, 0), bias=False)
  (conv4_3): Conv2d(1024, 1024, kernel_size=(1, 3), stride=(1, 1), padding=(0, 1), bias=False)
  (resconv4): Conv2d(2048, 2048, kernel_size=(1, 1), stride=(2, 2))
  (bn4): BatchNorm2d(1024, eps=1e-05, momentum=0.1, affine=True, track_running_stats=True)
  (conv5): Conv2d(2048, 2048, kernel_size=(3, 3), stride=(2, 2), padding=(1, 1))
  (conv5_2): Conv2d(2048, 2048, kernel_size=(3, 1), stride=(2, 2), padding=(1, 0), bias=False)
  (conv5_3): Conv2d(2048, 2048, kernel_size=(1, 3), stride=(2, 2), padding=(0, 1), bias=False)
  (bn5): BatchNorm2d(2048, eps=1e-05, momentum=0.1, affine=True, track_running_stats=True)
  (conv6): Conv2d(2048, 2048, kernel_size=(3, 3), stride=(1, 1), padding=(1, 1))
  (conv6_2): Conv2d(2048, 2048, kernel_size=(3, 1), stride=(1, 1), padding=(1, 0), bias=False)
  (conv6_3): Conv2d(2048, 2048, kernel_size=(1, 3), stride=(1, 1), padding=(0, 1), bias=False)
  (bn6): BatchNorm2d(2048, eps=1e-05, momentum=0.1, affine=True, track_running_stats=True)
  (deconv1): ConvTranspose2d(4096, 2048, kernel_size=(3, 3), stride=(2, 2), padding=(1, 1), output_padding=(1, 1))
  (conv11_1): Conv2d(512, 512, kernel_size=(3, 3), stride=(1, 1), padding=(1, 1))
  (deconv_bn1): BatchNorm2d(512, eps=1e-05, momentum=0.1, affine=True, track_running_stats=True)
  (deconv2): ConvTranspose2d(512, 128, kernel_size=(3, 3), stride=(2, 2), padding=(1, 1), output_padding=(1, 1))
  (conv12_1): Conv2d(128, 128, kernel_size=(3, 3), stride=(1, 1), padding=(1, 1))
  (deconv_bn2): BatchNorm2d(128, eps=1e-05, momentum=0.1, affine=True, track_running_stats=True)
  (GP_conv0): Conv2d(384, 512, kernel_size=(1, 1), stride=(1, 1))
  (GP_pool1): AdaptiveMaxPool2d(output_size=(6, 6))
  (GP_conv1): Conv2d(384, 1024, kernel_size=(1, 1), stride=(1, 1))
  (GP_pool2): AdaptiveMaxPool2d(output_size=(3, 3))
  (GP_conv2): Conv2d(384, 2048, kernel_size=(1, 1), stride=(1, 1))
)
[2022-07-22 09:33:31,515][feature_train_ori.py][L121][INFO] Epoch 0 begin
[2022-07-22 09:35:29,783][feature_train_ori.py][L371][INFO] Auto Encoder training
[2022-07-22 09:35:29,783][feature_train_ori.py][L372][INFO] Encoder & Decoder Model : 
[2022-07-22 09:35:36,222][feature_train_ori.py][L383][INFO] Concatenation(
  (relu): LeakyReLU(negative_slope=0.01)
  (conv): Conv2d(384, 512, kernel_size=(3, 3), stride=(1, 1), padding=(1, 1))
  (conv1): Conv2d(512, 512, kernel_size=(3, 3), stride=(1, 1), padding=(1, 1))
  (conv1_2): Conv2d(512, 512, kernel_size=(3, 1), stride=(1, 1), padding=(1, 0), bias=False)
  (conv1_3): Conv2d(512, 512, kernel_size=(1, 3), stride=(1, 1), padding=(0, 1), bias=False)
  (bn1): BatchNorm2d(512, eps=1e-05, momentum=0.1, affine=True, track_running_stats=True)
  (conv2): Conv2d(512, 512, kernel_size=(3, 3), stride=(1, 1), padding=(1, 1))
  (conv2_2): Conv2d(512, 512, kernel_size=(3, 1), stride=(1, 1), padding=(1, 0), bias=False)
  (conv2_3): Conv2d(512, 512, kernel_size=(1, 3), stride=(1, 1), padding=(0, 1), bias=False)
  (resconv2): Conv2d(1024, 1024, kernel_size=(1, 1), stride=(2, 2))
  (bn2): BatchNorm2d(512, eps=1e-05, momentum=0.1, affine=True, track_running_stats=True)
  (conv3): Conv2d(1024, 1024, kernel_size=(3, 3), stride=(2, 2), padding=(1, 1))
  (conv3_2): Conv2d(1024, 1024, kernel_size=(3, 1), stride=(2, 2), padding=(1, 0), bias=False)
  (conv3_3): Conv2d(1024, 1024, kernel_size=(1, 3), stride=(2, 2), padding=(0, 1), bias=False)
  (bn3): BatchNorm2d(1024, eps=1e-05, momentum=0.1, affine=True, track_running_stats=True)
  (conv4): Conv2d(1024, 1024, kernel_size=(3, 3), stride=(1, 1), padding=(1, 1))
  (conv4_2): Conv2d(1024, 1024, kernel_size=(3, 1), stride=(1, 1), padding=(1, 0), bias=False)
  (conv4_3): Conv2d(1024, 1024, kernel_size=(1, 3), stride=(1, 1), padding=(0, 1), bias=False)
  (resconv4): Conv2d(2048, 2048, kernel_size=(1, 1), stride=(2, 2))
  (bn4): BatchNorm2d(1024, eps=1e-05, momentum=0.1, affine=True, track_running_stats=True)
  (conv5): Conv2d(2048, 2048, kernel_size=(3, 3), stride=(2, 2), padding=(1, 1))
  (conv5_2): Conv2d(2048, 2048, kernel_size=(3, 1), stride=(2, 2), padding=(1, 0), bias=False)
  (conv5_3): Conv2d(2048, 2048, kernel_size=(1, 3), stride=(2, 2), padding=(0, 1), bias=False)
  (bn5): BatchNorm2d(2048, eps=1e-05, momentum=0.1, affine=True, track_running_stats=True)
  (conv6): Conv2d(2048, 2048, kernel_size=(3, 3), stride=(1, 1), padding=(1, 1))
  (conv6_2): Conv2d(2048, 2048, kernel_size=(3, 1), stride=(1, 1), padding=(1, 0), bias=False)
  (conv6_3): Conv2d(2048, 2048, kernel_size=(1, 3), stride=(1, 1), padding=(0, 1), bias=False)
  (bn6): BatchNorm2d(2048, eps=1e-05, momentum=0.1, affine=True, track_running_stats=True)
  (deconv1): ConvTranspose2d(4096, 2048, kernel_size=(3, 3), stride=(2, 2), padding=(1, 1), output_padding=(1, 1))
  (conv11_1): Conv2d(512, 512, kernel_size=(3, 3), stride=(1, 1), padding=(1, 1))
  (deconv_bn1): BatchNorm2d(512, eps=1e-05, momentum=0.1, affine=True, track_running_stats=True)
  (deconv2): ConvTranspose2d(2048, 128, kernel_size=(3, 3), stride=(2, 2), padding=(1, 1), output_padding=(1, 1))
  (conv12_1): Conv2d(128, 128, kernel_size=(3, 3), stride=(1, 1), padding=(1, 1))
  (deconv_bn2): BatchNorm2d(128, eps=1e-05, momentum=0.1, affine=True, track_running_stats=True)
  (GP_conv0): Conv2d(384, 512, kernel_size=(1, 1), stride=(1, 1))
  (GP_pool1): AdaptiveMaxPool2d(output_size=(6, 6))
  (GP_conv1): Conv2d(384, 1024, kernel_size=(1, 1), stride=(1, 1))
  (GP_pool2): AdaptiveMaxPool2d(output_size=(3, 3))
  (GP_conv2): Conv2d(384, 2048, kernel_size=(1, 1), stride=(1, 1))
)
[2022-07-22 09:35:43,332][feature_train_ori.py][L121][INFO] Epoch 0 begin
[2022-07-22 09:37:11,393][feature_train_ori.py][L371][INFO] Auto Encoder training
[2022-07-22 09:37:11,394][feature_train_ori.py][L372][INFO] Encoder & Decoder Model : 
[2022-07-22 09:37:17,984][feature_train_ori.py][L383][INFO] Concatenation(
  (relu): LeakyReLU(negative_slope=0.01)
  (conv): Conv2d(384, 512, kernel_size=(3, 3), stride=(1, 1), padding=(1, 1))
  (conv1): Conv2d(512, 512, kernel_size=(3, 3), stride=(1, 1), padding=(1, 1))
  (conv1_2): Conv2d(512, 512, kernel_size=(3, 1), stride=(1, 1), padding=(1, 0), bias=False)
  (conv1_3): Conv2d(512, 512, kernel_size=(1, 3), stride=(1, 1), padding=(0, 1), bias=False)
  (bn1): BatchNorm2d(512, eps=1e-05, momentum=0.1, affine=True, track_running_stats=True)
  (conv2): Conv2d(512, 512, kernel_size=(3, 3), stride=(1, 1), padding=(1, 1))
  (conv2_2): Conv2d(512, 512, kernel_size=(3, 1), stride=(1, 1), padding=(1, 0), bias=False)
  (conv2_3): Conv2d(512, 512, kernel_size=(1, 3), stride=(1, 1), padding=(0, 1), bias=False)
  (resconv2): Conv2d(1024, 1024, kernel_size=(1, 1), stride=(2, 2))
  (bn2): BatchNorm2d(512, eps=1e-05, momentum=0.1, affine=True, track_running_stats=True)
  (conv3): Conv2d(1024, 1024, kernel_size=(3, 3), stride=(2, 2), padding=(1, 1))
  (conv3_2): Conv2d(1024, 1024, kernel_size=(3, 1), stride=(2, 2), padding=(1, 0), bias=False)
  (conv3_3): Conv2d(1024, 1024, kernel_size=(1, 3), stride=(2, 2), padding=(0, 1), bias=False)
  (bn3): BatchNorm2d(1024, eps=1e-05, momentum=0.1, affine=True, track_running_stats=True)
  (conv4): Conv2d(1024, 1024, kernel_size=(3, 3), stride=(1, 1), padding=(1, 1))
  (conv4_2): Conv2d(1024, 1024, kernel_size=(3, 1), stride=(1, 1), padding=(1, 0), bias=False)
  (conv4_3): Conv2d(1024, 1024, kernel_size=(1, 3), stride=(1, 1), padding=(0, 1), bias=False)
  (resconv4): Conv2d(2048, 2048, kernel_size=(1, 1), stride=(2, 2))
  (bn4): BatchNorm2d(1024, eps=1e-05, momentum=0.1, affine=True, track_running_stats=True)
  (conv5): Conv2d(2048, 2048, kernel_size=(3, 3), stride=(2, 2), padding=(1, 1))
  (conv5_2): Conv2d(2048, 2048, kernel_size=(3, 1), stride=(2, 2), padding=(1, 0), bias=False)
  (conv5_3): Conv2d(2048, 2048, kernel_size=(1, 3), stride=(2, 2), padding=(0, 1), bias=False)
  (bn5): BatchNorm2d(2048, eps=1e-05, momentum=0.1, affine=True, track_running_stats=True)
  (conv6): Conv2d(2048, 2048, kernel_size=(3, 3), stride=(1, 1), padding=(1, 1))
  (conv6_2): Conv2d(2048, 2048, kernel_size=(3, 1), stride=(1, 1), padding=(1, 0), bias=False)
  (conv6_3): Conv2d(2048, 2048, kernel_size=(1, 3), stride=(1, 1), padding=(0, 1), bias=False)
  (bn6): BatchNorm2d(2048, eps=1e-05, momentum=0.1, affine=True, track_running_stats=True)
  (deconv1): ConvTranspose2d(4096, 2048, kernel_size=(3, 3), stride=(2, 2), padding=(1, 1), output_padding=(1, 1))
  (conv11_1): Conv2d(512, 512, kernel_size=(3, 3), stride=(1, 1), padding=(1, 1))
  (deconv_bn1): BatchNorm2d(512, eps=1e-05, momentum=0.1, affine=True, track_running_stats=True)
  (deconv2): ConvTranspose2d(4096, 512, kernel_size=(3, 3), stride=(2, 2), padding=(1, 1), output_padding=(1, 1))
  (conv12_1): Conv2d(128, 128, kernel_size=(3, 3), stride=(1, 1), padding=(1, 1))
  (deconv_bn2): BatchNorm2d(128, eps=1e-05, momentum=0.1, affine=True, track_running_stats=True)
  (GP_conv0): Conv2d(384, 512, kernel_size=(1, 1), stride=(1, 1))
  (GP_pool1): AdaptiveMaxPool2d(output_size=(6, 6))
  (GP_conv1): Conv2d(384, 1024, kernel_size=(1, 1), stride=(1, 1))
  (GP_pool2): AdaptiveMaxPool2d(output_size=(3, 3))
  (GP_conv2): Conv2d(384, 2048, kernel_size=(1, 1), stride=(1, 1))
)
[2022-07-22 09:37:25,005][feature_train_ori.py][L121][INFO] Epoch 0 begin
[2022-07-22 09:39:14,413][feature_train_ori.py][L371][INFO] Auto Encoder training
[2022-07-22 09:39:14,413][feature_train_ori.py][L372][INFO] Encoder & Decoder Model : 
[2022-07-22 09:39:20,991][feature_train_ori.py][L383][INFO] Concatenation(
  (relu): LeakyReLU(negative_slope=0.01)
  (conv): Conv2d(384, 512, kernel_size=(3, 3), stride=(1, 1), padding=(1, 1))
  (conv1): Conv2d(512, 512, kernel_size=(3, 3), stride=(1, 1), padding=(1, 1))
  (conv1_2): Conv2d(512, 512, kernel_size=(3, 1), stride=(1, 1), padding=(1, 0), bias=False)
  (conv1_3): Conv2d(512, 512, kernel_size=(1, 3), stride=(1, 1), padding=(0, 1), bias=False)
  (bn1): BatchNorm2d(512, eps=1e-05, momentum=0.1, affine=True, track_running_stats=True)
  (conv2): Conv2d(512, 512, kernel_size=(3, 3), stride=(1, 1), padding=(1, 1))
  (conv2_2): Conv2d(512, 512, kernel_size=(3, 1), stride=(1, 1), padding=(1, 0), bias=False)
  (conv2_3): Conv2d(512, 512, kernel_size=(1, 3), stride=(1, 1), padding=(0, 1), bias=False)
  (resconv2): Conv2d(1024, 1024, kernel_size=(1, 1), stride=(2, 2))
  (bn2): BatchNorm2d(512, eps=1e-05, momentum=0.1, affine=True, track_running_stats=True)
  (conv3): Conv2d(1024, 1024, kernel_size=(3, 3), stride=(2, 2), padding=(1, 1))
  (conv3_2): Conv2d(1024, 1024, kernel_size=(3, 1), stride=(2, 2), padding=(1, 0), bias=False)
  (conv3_3): Conv2d(1024, 1024, kernel_size=(1, 3), stride=(2, 2), padding=(0, 1), bias=False)
  (bn3): BatchNorm2d(1024, eps=1e-05, momentum=0.1, affine=True, track_running_stats=True)
  (conv4): Conv2d(1024, 1024, kernel_size=(3, 3), stride=(1, 1), padding=(1, 1))
  (conv4_2): Conv2d(1024, 1024, kernel_size=(3, 1), stride=(1, 1), padding=(1, 0), bias=False)
  (conv4_3): Conv2d(1024, 1024, kernel_size=(1, 3), stride=(1, 1), padding=(0, 1), bias=False)
  (resconv4): Conv2d(2048, 2048, kernel_size=(1, 1), stride=(2, 2))
  (bn4): BatchNorm2d(1024, eps=1e-05, momentum=0.1, affine=True, track_running_stats=True)
  (conv5): Conv2d(2048, 2048, kernel_size=(3, 3), stride=(2, 2), padding=(1, 1))
  (conv5_2): Conv2d(2048, 2048, kernel_size=(3, 1), stride=(2, 2), padding=(1, 0), bias=False)
  (conv5_3): Conv2d(2048, 2048, kernel_size=(1, 3), stride=(2, 2), padding=(0, 1), bias=False)
  (bn5): BatchNorm2d(2048, eps=1e-05, momentum=0.1, affine=True, track_running_stats=True)
  (conv6): Conv2d(2048, 2048, kernel_size=(3, 3), stride=(1, 1), padding=(1, 1))
  (conv6_2): Conv2d(2048, 2048, kernel_size=(3, 1), stride=(1, 1), padding=(1, 0), bias=False)
  (conv6_3): Conv2d(2048, 2048, kernel_size=(1, 3), stride=(1, 1), padding=(0, 1), bias=False)
  (bn6): BatchNorm2d(2048, eps=1e-05, momentum=0.1, affine=True, track_running_stats=True)
  (deconv1): ConvTranspose2d(4096, 2048, kernel_size=(3, 3), stride=(2, 2), padding=(1, 1), output_padding=(1, 1))
  (conv11_1): Conv2d(512, 512, kernel_size=(3, 3), stride=(1, 1), padding=(1, 1))
  (deconv_bn1): BatchNorm2d(512, eps=1e-05, momentum=0.1, affine=True, track_running_stats=True)
  (deconv2): ConvTranspose2d(4096, 512, kernel_size=(3, 3), stride=(2, 2), padding=(1, 1), output_padding=(1, 1))
  (conv12_1): Conv2d(128, 128, kernel_size=(3, 3), stride=(1, 1), padding=(1, 1))
  (deconv_bn2): BatchNorm2d(128, eps=1e-05, momentum=0.1, affine=True, track_running_stats=True)
  (GP_conv0): Conv2d(384, 512, kernel_size=(1, 1), stride=(1, 1))
  (GP_pool1): AdaptiveMaxPool2d(output_size=(6, 6))
  (GP_conv1): Conv2d(384, 1024, kernel_size=(1, 1), stride=(1, 1))
  (GP_pool2): AdaptiveMaxPool2d(output_size=(3, 3))
  (GP_conv2): Conv2d(384, 2048, kernel_size=(1, 1), stride=(1, 1))
)
[2022-07-22 09:39:27,996][feature_train_ori.py][L121][INFO] Epoch 0 begin
[2022-07-22 09:40:58,366][feature_train_ori.py][L371][INFO] Auto Encoder training
[2022-07-22 09:40:58,366][feature_train_ori.py][L372][INFO] Encoder & Decoder Model : 
[2022-07-22 09:41:05,145][feature_train_ori.py][L383][INFO] Concatenation(
  (relu): LeakyReLU(negative_slope=0.01)
  (conv): Conv2d(384, 512, kernel_size=(3, 3), stride=(1, 1), padding=(1, 1))
  (conv1): Conv2d(512, 512, kernel_size=(3, 3), stride=(1, 1), padding=(1, 1))
  (conv1_2): Conv2d(512, 512, kernel_size=(3, 1), stride=(1, 1), padding=(1, 0), bias=False)
  (conv1_3): Conv2d(512, 512, kernel_size=(1, 3), stride=(1, 1), padding=(0, 1), bias=False)
  (bn1): BatchNorm2d(512, eps=1e-05, momentum=0.1, affine=True, track_running_stats=True)
  (conv2): Conv2d(512, 512, kernel_size=(3, 3), stride=(1, 1), padding=(1, 1))
  (conv2_2): Conv2d(512, 512, kernel_size=(3, 1), stride=(1, 1), padding=(1, 0), bias=False)
  (conv2_3): Conv2d(512, 512, kernel_size=(1, 3), stride=(1, 1), padding=(0, 1), bias=False)
  (resconv2): Conv2d(1024, 1024, kernel_size=(1, 1), stride=(2, 2))
  (bn2): BatchNorm2d(512, eps=1e-05, momentum=0.1, affine=True, track_running_stats=True)
  (conv3): Conv2d(1024, 1024, kernel_size=(3, 3), stride=(2, 2), padding=(1, 1))
  (conv3_2): Conv2d(1024, 1024, kernel_size=(3, 1), stride=(2, 2), padding=(1, 0), bias=False)
  (conv3_3): Conv2d(1024, 1024, kernel_size=(1, 3), stride=(2, 2), padding=(0, 1), bias=False)
  (bn3): BatchNorm2d(1024, eps=1e-05, momentum=0.1, affine=True, track_running_stats=True)
  (conv4): Conv2d(1024, 1024, kernel_size=(3, 3), stride=(1, 1), padding=(1, 1))
  (conv4_2): Conv2d(1024, 1024, kernel_size=(3, 1), stride=(1, 1), padding=(1, 0), bias=False)
  (conv4_3): Conv2d(1024, 1024, kernel_size=(1, 3), stride=(1, 1), padding=(0, 1), bias=False)
  (resconv4): Conv2d(2048, 2048, kernel_size=(1, 1), stride=(2, 2))
  (bn4): BatchNorm2d(1024, eps=1e-05, momentum=0.1, affine=True, track_running_stats=True)
  (conv5): Conv2d(2048, 2048, kernel_size=(3, 3), stride=(2, 2), padding=(1, 1))
  (conv5_2): Conv2d(2048, 2048, kernel_size=(3, 1), stride=(2, 2), padding=(1, 0), bias=False)
  (conv5_3): Conv2d(2048, 2048, kernel_size=(1, 3), stride=(2, 2), padding=(0, 1), bias=False)
  (bn5): BatchNorm2d(2048, eps=1e-05, momentum=0.1, affine=True, track_running_stats=True)
  (conv6): Conv2d(2048, 2048, kernel_size=(3, 3), stride=(1, 1), padding=(1, 1))
  (conv6_2): Conv2d(2048, 2048, kernel_size=(3, 1), stride=(1, 1), padding=(1, 0), bias=False)
  (conv6_3): Conv2d(2048, 2048, kernel_size=(1, 3), stride=(1, 1), padding=(0, 1), bias=False)
  (bn6): BatchNorm2d(2048, eps=1e-05, momentum=0.1, affine=True, track_running_stats=True)
  (deconv1): ConvTranspose2d(4096, 2048, kernel_size=(3, 3), stride=(2, 2), padding=(1, 1), output_padding=(1, 1))
  (conv11_1): Conv2d(512, 512, kernel_size=(3, 3), stride=(1, 1), padding=(1, 1))
  (deconv_bn1): BatchNorm2d(512, eps=1e-05, momentum=0.1, affine=True, track_running_stats=True)
  (deconv2): ConvTranspose2d(4096, 1024, kernel_size=(3, 3), stride=(2, 2), padding=(1, 1), output_padding=(1, 1))
  (conv12_1): Conv2d(128, 128, kernel_size=(3, 3), stride=(1, 1), padding=(1, 1))
  (deconv_bn2): BatchNorm2d(128, eps=1e-05, momentum=0.1, affine=True, track_running_stats=True)
  (GP_conv0): Conv2d(384, 512, kernel_size=(1, 1), stride=(1, 1))
  (GP_pool1): AdaptiveMaxPool2d(output_size=(6, 6))
  (GP_conv1): Conv2d(384, 1024, kernel_size=(1, 1), stride=(1, 1))
  (GP_pool2): AdaptiveMaxPool2d(output_size=(3, 3))
  (GP_conv2): Conv2d(384, 2048, kernel_size=(1, 1), stride=(1, 1))
)
[2022-07-22 09:41:12,185][feature_train_ori.py][L121][INFO] Epoch 0 begin
[2022-07-22 09:44:31,718][feature_train_ori.py][L371][INFO] Auto Encoder training
[2022-07-22 09:44:31,718][feature_train_ori.py][L372][INFO] Encoder & Decoder Model : 
[2022-07-22 09:44:38,525][feature_train_ori.py][L383][INFO] Concatenation(
  (relu): LeakyReLU(negative_slope=0.01)
  (conv): Conv2d(384, 512, kernel_size=(3, 3), stride=(1, 1), padding=(1, 1))
  (conv1): Conv2d(512, 512, kernel_size=(3, 3), stride=(1, 1), padding=(1, 1))
  (conv1_2): Conv2d(512, 512, kernel_size=(3, 1), stride=(1, 1), padding=(1, 0), bias=False)
  (conv1_3): Conv2d(512, 512, kernel_size=(1, 3), stride=(1, 1), padding=(0, 1), bias=False)
  (bn1): BatchNorm2d(512, eps=1e-05, momentum=0.1, affine=True, track_running_stats=True)
  (conv2): Conv2d(512, 512, kernel_size=(3, 3), stride=(1, 1), padding=(1, 1))
  (conv2_2): Conv2d(512, 512, kernel_size=(3, 1), stride=(1, 1), padding=(1, 0), bias=False)
  (conv2_3): Conv2d(512, 512, kernel_size=(1, 3), stride=(1, 1), padding=(0, 1), bias=False)
  (resconv2): Conv2d(1024, 1024, kernel_size=(1, 1), stride=(2, 2))
  (bn2): BatchNorm2d(512, eps=1e-05, momentum=0.1, affine=True, track_running_stats=True)
  (conv3): Conv2d(1024, 1024, kernel_size=(3, 3), stride=(2, 2), padding=(1, 1))
  (conv3_2): Conv2d(1024, 1024, kernel_size=(3, 1), stride=(2, 2), padding=(1, 0), bias=False)
  (conv3_3): Conv2d(1024, 1024, kernel_size=(1, 3), stride=(2, 2), padding=(0, 1), bias=False)
  (bn3): BatchNorm2d(1024, eps=1e-05, momentum=0.1, affine=True, track_running_stats=True)
  (conv4): Conv2d(1024, 1024, kernel_size=(3, 3), stride=(1, 1), padding=(1, 1))
  (conv4_2): Conv2d(1024, 1024, kernel_size=(3, 1), stride=(1, 1), padding=(1, 0), bias=False)
  (conv4_3): Conv2d(1024, 1024, kernel_size=(1, 3), stride=(1, 1), padding=(0, 1), bias=False)
  (resconv4): Conv2d(2048, 2048, kernel_size=(1, 1), stride=(2, 2))
  (bn4): BatchNorm2d(1024, eps=1e-05, momentum=0.1, affine=True, track_running_stats=True)
  (conv5): Conv2d(2048, 2048, kernel_size=(3, 3), stride=(2, 2), padding=(1, 1))
  (conv5_2): Conv2d(2048, 2048, kernel_size=(3, 1), stride=(2, 2), padding=(1, 0), bias=False)
  (conv5_3): Conv2d(2048, 2048, kernel_size=(1, 3), stride=(2, 2), padding=(0, 1), bias=False)
  (bn5): BatchNorm2d(2048, eps=1e-05, momentum=0.1, affine=True, track_running_stats=True)
  (conv6): Conv2d(2048, 2048, kernel_size=(3, 3), stride=(1, 1), padding=(1, 1))
  (conv6_2): Conv2d(2048, 2048, kernel_size=(3, 1), stride=(1, 1), padding=(1, 0), bias=False)
  (conv6_3): Conv2d(2048, 2048, kernel_size=(1, 3), stride=(1, 1), padding=(0, 1), bias=False)
  (bn6): BatchNorm2d(2048, eps=1e-05, momentum=0.1, affine=True, track_running_stats=True)
  (deconv1): ConvTranspose2d(4096, 2048, kernel_size=(3, 3), stride=(2, 2), padding=(1, 1), output_padding=(1, 1))
  (conv11_1): Conv2d(512, 512, kernel_size=(3, 3), stride=(1, 1), padding=(1, 1))
  (deconv_bn1): BatchNorm2d(512, eps=1e-05, momentum=0.1, affine=True, track_running_stats=True)
  (deconv2): ConvTranspose2d(4096, 1024, kernel_size=(3, 3), stride=(2, 2), padding=(1, 1), output_padding=(1, 1))
  (conv12_1): Conv2d(128, 128, kernel_size=(3, 3), stride=(1, 1), padding=(1, 1))
  (deconv_bn2): BatchNorm2d(128, eps=1e-05, momentum=0.1, affine=True, track_running_stats=True)
  (deconv3): ConvTranspose2d(2048, 128, kernel_size=(3, 3), stride=(1, 1), padding=(1, 1))
  (GP_conv0): Conv2d(384, 512, kernel_size=(1, 1), stride=(1, 1))
  (GP_pool1): AdaptiveMaxPool2d(output_size=(6, 6))
  (GP_conv1): Conv2d(384, 1024, kernel_size=(1, 1), stride=(1, 1))
  (GP_pool2): AdaptiveMaxPool2d(output_size=(3, 3))
  (GP_conv2): Conv2d(384, 2048, kernel_size=(1, 1), stride=(1, 1))
)
[2022-07-22 09:44:45,576][feature_train_ori.py][L121][INFO] Epoch 0 begin
[2022-07-22 09:45:57,791][feature_train_ori.py][L341][INFO] Step [1/2500000=0.00%] | Epoch 0 | Time 71.777 (71.777) | Lr 0.0001 | AIC Loss 0.40697 (0.40697) | All Losses 0.41168 (0.41168)
[2022-07-22 09:47:09,184][feature_train_ori.py][L341][INFO] Step [2/2500000=0.00%] | Epoch 0 | Time 71.366 (71.366) | Lr 0.0001 | AIC Loss 0.37248 (0.37248) | All Losses 0.37887 (0.37887)
…
[2022-07-22 11:54:52,385][feature_train_ori.py][L341][INFO] Step [109/2500000=0.00%] | Epoch 0 | Time 71.500 (71.500) | Lr 0.0001 | AIC Loss 0.12967 (0.12967) | All Losses 0.22707 (0.22707)
[2022-07-22 11:56:03,863][feature_train_ori.py][L341][INFO] Step [110/2500000=0.00%] | Epoch 0 | Time 71.450 (71.450) | Lr 0.0001 | AIC Loss 0.14491 (0.14491) | All Losses 0.23376 (0.23376)
[2022-07-22 13:35:03,983][feature_train_ori.py][L371][INFO] Auto Encoder training
[2022-07-22 13:35:03,984][feature_train_ori.py][L372][INFO] Encoder & Decoder Model : 
[2022-07-22 13:35:11,645][feature_train_ori.py][L384][INFO] Concatenation(
  (relu): LeakyReLU(negative_slope=0.01)
  (conv): Conv2d(384, 512, kernel_size=(3, 3), stride=(1, 1), padding=(1, 1))
  (conv1): Conv2d(512, 512, kernel_size=(3, 3), stride=(1, 1), padding=(1, 1))
  (conv1_2): Conv2d(512, 512, kernel_size=(3, 1), stride=(1, 1), padding=(1, 0), bias=False)
  (conv1_3): Conv2d(512, 512, kernel_size=(1, 3), stride=(1, 1), padding=(0, 1), bias=False)
  (bn1): BatchNorm2d(512, eps=1e-05, momentum=0.1, affine=True, track_running_stats=True)
  (conv2): Conv2d(512, 512, kernel_size=(3, 3), stride=(1, 1), padding=(1, 1))
  (conv2_2): Conv2d(512, 512, kernel_size=(3, 1), stride=(1, 1), padding=(1, 0), bias=False)
  (conv2_3): Conv2d(512, 512, kernel_size=(1, 3), stride=(1, 1), padding=(0, 1), bias=False)
  (resconv2): Conv2d(1024, 1024, kernel_size=(1, 1), stride=(2, 2))
  (bn2): BatchNorm2d(512, eps=1e-05, momentum=0.1, affine=True, track_running_stats=True)
  (conv3): Conv2d(1024, 1024, kernel_size=(3, 3), stride=(2, 2), padding=(1, 1))
  (conv3_2): Conv2d(1024, 1024, kernel_size=(3, 1), stride=(2, 2), padding=(1, 0), bias=False)
  (conv3_3): Conv2d(1024, 1024, kernel_size=(1, 3), stride=(2, 2), padding=(0, 1), bias=False)
  (bn3): BatchNorm2d(1024, eps=1e-05, momentum=0.1, affine=True, track_running_stats=True)
  (conv4): Conv2d(1024, 1024, kernel_size=(3, 3), stride=(1, 1), padding=(1, 1))
  (conv4_2): Conv2d(1024, 1024, kernel_size=(3, 1), stride=(1, 1), padding=(1, 0), bias=False)
  (conv4_3): Conv2d(1024, 1024, kernel_size=(1, 3), stride=(1, 1), padding=(0, 1), bias=False)
  (resconv4): Conv2d(2048, 2048, kernel_size=(1, 1), stride=(2, 2))
  (bn4): BatchNorm2d(1024, eps=1e-05, momentum=0.1, affine=True, track_running_stats=True)
  (conv5): Conv2d(2048, 2048, kernel_size=(3, 3), stride=(2, 2), padding=(1, 1))
  (conv5_2): Conv2d(2048, 2048, kernel_size=(3, 1), stride=(2, 2), padding=(1, 0), bias=False)
  (conv5_3): Conv2d(2048, 2048, kernel_size=(1, 3), stride=(2, 2), padding=(0, 1), bias=False)
  (bn5): BatchNorm2d(2048, eps=1e-05, momentum=0.1, affine=True, track_running_stats=True)
  (conv6): Conv2d(2048, 2048, kernel_size=(3, 3), stride=(1, 1), padding=(1, 1))
  (conv6_2): Conv2d(2048, 2048, kernel_size=(3, 1), stride=(1, 1), padding=(1, 0), bias=False)
  (conv6_3): Conv2d(2048, 2048, kernel_size=(1, 3), stride=(1, 1), padding=(0, 1), bias=False)
  (bn6): BatchNorm2d(2048, eps=1e-05, momentum=0.1, affine=True, track_running_stats=True)
  (deconv1): ConvTranspose2d(4096, 2048, kernel_size=(3, 3), stride=(2, 2), padding=(1, 1), output_padding=(1, 1))
  (conv11_1): Conv2d(512, 512, kernel_size=(3, 3), stride=(1, 1), padding=(1, 1))
  (deconv_bn1): BatchNorm2d(512, eps=1e-05, momentum=0.1, affine=True, track_running_stats=True)
  (deconv2): ConvTranspose2d(4096, 1024, kernel_size=(3, 3), stride=(2, 2), padding=(1, 1), output_padding=(1, 1))
  (conv12_1): Conv2d(128, 128, kernel_size=(3, 3), stride=(1, 1), padding=(1, 1))
  (deconv_bn2): BatchNorm2d(128, eps=1e-05, momentum=0.1, affine=True, track_running_stats=True)
  (deconv3): ConvTranspose2d(2048, 128, kernel_size=(3, 3), stride=(1, 1), padding=(1, 1))
  (GP_conv0): Conv2d(384, 512, kernel_size=(1, 1), stride=(1, 1))
  (GP_pool1): AdaptiveMaxPool2d(output_size=(6, 6))
  (GP_conv1): Conv2d(384, 1024, kernel_size=(1, 1), stride=(1, 1))
  (GP_pool2): AdaptiveMaxPool2d(output_size=(3, 3))
  (GP_conv2): Conv2d(384, 2048, kernel_size=(1, 1), stride=(1, 1))
)
[2022-07-22 13:35:18,782][feature_train_ori.py][L121][INFO] Epoch 0 begin
[2022-07-22 13:36:27,653][feature_train_ori.py][L341][INFO] Step [1/2500000=0.00%] | Epoch 0 | Time 68.353 (68.353) | Lr 0.0001 | AIC Loss 0.14551 (0.14551) | All Losses 0.23733 (0.23733)
[2022-07-22 13:37:36,266][feature_train_ori.py][L341][INFO] Step [2/2500000=0.00%] | Epoch 0 | Time 68.587 (68.587) | Lr 0.0001 | AIC Loss 0.21416 (0.21416) | All Losses 0.25809 (0.25809)
…
[2022-07-22 13:48:39,305][feature_train_ori.py][L341][INFO] Step [12/2500000=0.00%] | Epoch 0 | Time 67.328 (67.328) | Lr 0.0001 | AIC Loss 0.16544 (0.16544) | All Losses 0.23179 (0.23179)
[2022-07-22 13:49:44,957][feature_train_ori.py][L341][INFO] Step [13/2500000=0.00%] | Epoch 0 | Time 65.625 (65.625) | Lr 0.0001 | AIC Loss 0.19292 (0.19292) | All Losses 0.26415 (0.26415)
[2022-07-22 13:52:15,020][feature_train_ori.py][L371][INFO] Auto Encoder training
[2022-07-22 13:52:15,020][feature_train_ori.py][L372][INFO] Encoder & Decoder Model : 
[2022-07-22 13:52:21,869][feature_train_ori.py][L384][INFO] Concatenation(
  (relu): LeakyReLU(negative_slope=0.01)
  (conv): Conv2d(384, 512, kernel_size=(3, 3), stride=(1, 1), padding=(1, 1))
  (conv1): Conv2d(512, 512, kernel_size=(3, 3), stride=(1, 1), padding=(1, 1))
  (conv1_2): Conv2d(512, 512, kernel_size=(3, 1), stride=(1, 1), padding=(1, 0), bias=False)
  (conv1_3): Conv2d(512, 512, kernel_size=(1, 3), stride=(1, 1), padding=(0, 1), bias=False)
  (bn1): BatchNorm2d(512, eps=1e-05, momentum=0.1, affine=True, track_running_stats=True)
  (conv2): Conv2d(512, 512, kernel_size=(3, 3), stride=(1, 1), padding=(1, 1))
  (conv2_2): Conv2d(512, 512, kernel_size=(3, 1), stride=(1, 1), padding=(1, 0), bias=False)
  (conv2_3): Conv2d(512, 512, kernel_size=(1, 3), stride=(1, 1), padding=(0, 1), bias=False)
  (resconv2): Conv2d(1024, 1024, kernel_size=(1, 1), stride=(2, 2))
  (bn2): BatchNorm2d(512, eps=1e-05, momentum=0.1, affine=True, track_running_stats=True)
  (conv3): Conv2d(1024, 1024, kernel_size=(3, 3), stride=(2, 2), padding=(1, 1))
  (conv3_2): Conv2d(1024, 1024, kernel_size=(3, 1), stride=(2, 2), padding=(1, 0), bias=False)
  (conv3_3): Conv2d(1024, 1024, kernel_size=(1, 3), stride=(2, 2), padding=(0, 1), bias=False)
  (bn3): BatchNorm2d(1024, eps=1e-05, momentum=0.1, affine=True, track_running_stats=True)
  (conv4): Conv2d(1024, 1024, kernel_size=(3, 3), stride=(1, 1), padding=(1, 1))
  (conv4_2): Conv2d(1024, 1024, kernel_size=(3, 1), stride=(1, 1), padding=(1, 0), bias=False)
  (conv4_3): Conv2d(1024, 1024, kernel_size=(1, 3), stride=(1, 1), padding=(0, 1), bias=False)
  (resconv4): Conv2d(2048, 2048, kernel_size=(1, 1), stride=(2, 2))
  (bn4): BatchNorm2d(1024, eps=1e-05, momentum=0.1, affine=True, track_running_stats=True)
  (conv5): Conv2d(2048, 2048, kernel_size=(3, 3), stride=(2, 2), padding=(1, 1))
  (conv5_2): Conv2d(2048, 2048, kernel_size=(3, 1), stride=(2, 2), padding=(1, 0), bias=False)
  (conv5_3): Conv2d(2048, 2048, kernel_size=(1, 3), stride=(2, 2), padding=(0, 1), bias=False)
  (bn5): BatchNorm2d(2048, eps=1e-05, momentum=0.1, affine=True, track_running_stats=True)
  (conv6): Conv2d(2048, 2048, kernel_size=(3, 3), stride=(1, 1), padding=(1, 1))
  (conv6_2): Conv2d(2048, 2048, kernel_size=(3, 1), stride=(1, 1), padding=(1, 0), bias=False)
  (conv6_3): Conv2d(2048, 2048, kernel_size=(1, 3), stride=(1, 1), padding=(0, 1), bias=False)
  (bn6): BatchNorm2d(2048, eps=1e-05, momentum=0.1, affine=True, track_running_stats=True)
  (deconv1): ConvTranspose2d(4096, 2048, kernel_size=(3, 3), stride=(2, 2), padding=(1, 1), output_padding=(1, 1))
  (conv11_1): Conv2d(512, 512, kernel_size=(3, 3), stride=(1, 1), padding=(1, 1))
  (deconv_bn1): BatchNorm2d(512, eps=1e-05, momentum=0.1, affine=True, track_running_stats=True)
  (deconv2): ConvTranspose2d(4096, 1024, kernel_size=(3, 3), stride=(2, 2), padding=(1, 1), output_padding=(1, 1))
  (conv12_1): Conv2d(128, 128, kernel_size=(3, 3), stride=(1, 1), padding=(1, 1))
  (deconv_bn2): BatchNorm2d(128, eps=1e-05, momentum=0.1, affine=True, track_running_stats=True)
  (deconv3): ConvTranspose2d(2048, 128, kernel_size=(3, 3), stride=(1, 1), padding=(1, 1), output_padding=(1, 1))
  (GP_conv0): Conv2d(384, 512, kernel_size=(1, 1), stride=(1, 1))
  (GP_pool1): AdaptiveMaxPool2d(output_size=(6, 6))
  (GP_conv1): Conv2d(384, 1024, kernel_size=(1, 1), stride=(1, 1))
  (GP_pool2): AdaptiveMaxPool2d(output_size=(3, 3))
  (GP_conv2): Conv2d(384, 2048, kernel_size=(1, 1), stride=(1, 1))
)
[2022-07-22 13:52:28,923][feature_train_ori.py][L121][INFO] Epoch 0 begin
[2022-07-22 13:57:21,903][feature_train_ori.py][L371][INFO] Auto Encoder training
[2022-07-22 13:57:21,903][feature_train_ori.py][L372][INFO] Encoder & Decoder Model : 
[2022-07-22 13:57:28,726][feature_train_ori.py][L384][INFO] Concatenation(
  (relu): LeakyReLU(negative_slope=0.01)
  (conv): Conv2d(384, 512, kernel_size=(3, 3), stride=(1, 1), padding=(1, 1))
  (conv1): Conv2d(512, 512, kernel_size=(3, 3), stride=(1, 1), padding=(1, 1))
  (conv1_2): Conv2d(512, 512, kernel_size=(3, 1), stride=(1, 1), padding=(1, 0), bias=False)
  (conv1_3): Conv2d(512, 512, kernel_size=(1, 3), stride=(1, 1), padding=(0, 1), bias=False)
  (bn1): BatchNorm2d(512, eps=1e-05, momentum=0.1, affine=True, track_running_stats=True)
  (conv2): Conv2d(512, 512, kernel_size=(3, 3), stride=(1, 1), padding=(1, 1))
  (conv2_2): Conv2d(512, 512, kernel_size=(3, 1), stride=(1, 1), padding=(1, 0), bias=False)
  (conv2_3): Conv2d(512, 512, kernel_size=(1, 3), stride=(1, 1), padding=(0, 1), bias=False)
  (resconv2): Conv2d(1024, 1024, kernel_size=(1, 1), stride=(2, 2))
  (bn2): BatchNorm2d(512, eps=1e-05, momentum=0.1, affine=True, track_running_stats=True)
  (conv3): Conv2d(1024, 1024, kernel_size=(3, 3), stride=(2, 2), padding=(1, 1))
  (conv3_2): Conv2d(1024, 1024, kernel_size=(3, 1), stride=(2, 2), padding=(1, 0), bias=False)
  (conv3_3): Conv2d(1024, 1024, kernel_size=(1, 3), stride=(2, 2), padding=(0, 1), bias=False)
  (bn3): BatchNorm2d(1024, eps=1e-05, momentum=0.1, affine=True, track_running_stats=True)
  (conv4): Conv2d(1024, 1024, kernel_size=(3, 3), stride=(1, 1), padding=(1, 1))
  (conv4_2): Conv2d(1024, 1024, kernel_size=(3, 1), stride=(1, 1), padding=(1, 0), bias=False)
  (conv4_3): Conv2d(1024, 1024, kernel_size=(1, 3), stride=(1, 1), padding=(0, 1), bias=False)
  (resconv4): Conv2d(2048, 2048, kernel_size=(1, 1), stride=(2, 2))
  (bn4): BatchNorm2d(1024, eps=1e-05, momentum=0.1, affine=True, track_running_stats=True)
  (conv5): Conv2d(2048, 2048, kernel_size=(3, 3), stride=(2, 2), padding=(1, 1))
  (conv5_2): Conv2d(2048, 2048, kernel_size=(3, 1), stride=(2, 2), padding=(1, 0), bias=False)
  (conv5_3): Conv2d(2048, 2048, kernel_size=(1, 3), stride=(2, 2), padding=(0, 1), bias=False)
  (bn5): BatchNorm2d(2048, eps=1e-05, momentum=0.1, affine=True, track_running_stats=True)
  (conv6): Conv2d(2048, 2048, kernel_size=(3, 3), stride=(1, 1), padding=(1, 1))
  (conv6_2): Conv2d(2048, 2048, kernel_size=(3, 1), stride=(1, 1), padding=(1, 0), bias=False)
  (conv6_3): Conv2d(2048, 2048, kernel_size=(1, 3), stride=(1, 1), padding=(0, 1), bias=False)
  (bn6): BatchNorm2d(2048, eps=1e-05, momentum=0.1, affine=True, track_running_stats=True)
  (deconv1): ConvTranspose2d(4096, 2048, kernel_size=(3, 3), stride=(2, 2), padding=(1, 1), output_padding=(1, 1))
  (conv11_1): Conv2d(512, 512, kernel_size=(3, 3), stride=(1, 1), padding=(1, 1))
  (deconv_bn1): BatchNorm2d(512, eps=1e-05, momentum=0.1, affine=True, track_running_stats=True)
  (deconv2): ConvTranspose2d(4096, 1024, kernel_size=(3, 3), stride=(2, 2), padding=(1, 1), output_padding=(1, 1))
  (conv12_1): Conv2d(128, 128, kernel_size=(3, 3), stride=(1, 1), padding=(1, 1))
  (deconv_bn2): BatchNorm2d(128, eps=1e-05, momentum=0.1, affine=True, track_running_stats=True)
  (deconv3): Conv2d(2048, 128, kernel_size=(3, 3), stride=(1, 1), padding=(1, 1))
  (GP_conv0): Conv2d(384, 512, kernel_size=(1, 1), stride=(1, 1))
  (GP_pool1): AdaptiveMaxPool2d(output_size=(6, 6))
  (GP_conv1): Conv2d(384, 1024, kernel_size=(1, 1), stride=(1, 1))
  (GP_pool2): AdaptiveMaxPool2d(output_size=(3, 3))
  (GP_conv2): Conv2d(384, 2048, kernel_size=(1, 1), stride=(1, 1))
)
[2022-07-22 13:57:35,821][feature_train_ori.py][L121][INFO] Epoch 0 begin
[2022-07-22 13:58:48,280][feature_train_ori.py][L341][INFO] Step [1/2500000=0.00%] | Epoch 0 | Time 72.012 (72.012) | Lr 0.0001 | AIC Loss 0.24542 (0.24542) | All Losses 0.68525 (0.68525)
[2022-07-22 13:59:59,981][feature_train_ori.py][L341][INFO] Step [2/2500000=0.00%] | Epoch 0 | Time 71.674 (71.674) | Lr 0.0001 | AIC Loss 0.37512 (0.37512) | All Losses 0.41079 (0.41079)
…
[2022-07-22 14:33:17,743][feature_train_ori.py][L341][INFO] Step [30/2500000=0.00%] | Epoch 0 | Time 70.970 (70.970) | Lr 0.0001 | AIC Loss 0.24478 (0.24478) | All Losses 0.33632 (0.33632)
[2022-07-22 14:34:31,143][feature_train_ori.py][L341][INFO] Step [31/2500000=0.00%] | Epoch 0 | Time 70.409 (70.409) | Lr 0.0001 | AIC Loss 0.23365 (0.23365) | All Losses 0.31238 (0.31238)
[2022-07-22 14:40:12,754][feature_train_ori.py][L371][INFO] Auto Encoder training
[2022-07-22 14:40:12,754][feature_train_ori.py][L372][INFO] Encoder & Decoder Model : 
[2022-07-22 14:40:19,594][feature_train_ori.py][L384][INFO] Concatenation(
  (relu): LeakyReLU(negative_slope=0.01)
  (conv): Conv2d(384, 512, kernel_size=(3, 3), stride=(1, 1), padding=(1, 1))
  (conv1): Conv2d(512, 512, kernel_size=(3, 3), stride=(1, 1), padding=(1, 1))
  (conv1_2): Conv2d(512, 512, kernel_size=(3, 1), stride=(1, 1), padding=(1, 0), bias=False)
  (conv1_3): Conv2d(512, 512, kernel_size=(1, 3), stride=(1, 1), padding=(0, 1), bias=False)
  (bn1): BatchNorm2d(512, eps=1e-05, momentum=0.1, affine=True, track_running_stats=True)
  (conv2): Conv2d(512, 512, kernel_size=(3, 3), stride=(1, 1), padding=(1, 1))
  (conv2_2): Conv2d(512, 512, kernel_size=(3, 1), stride=(1, 1), padding=(1, 0), bias=False)
  (conv2_3): Conv2d(512, 512, kernel_size=(1, 3), stride=(1, 1), padding=(0, 1), bias=False)
  (resconv2): Conv2d(1024, 1024, kernel_size=(1, 1), stride=(2, 2))
  (bn2): BatchNorm2d(512, eps=1e-05, momentum=0.1, affine=True, track_running_stats=True)
  (conv3): Conv2d(1024, 1024, kernel_size=(3, 3), stride=(2, 2), padding=(1, 1))
  (conv3_2): Conv2d(1024, 1024, kernel_size=(3, 1), stride=(2, 2), padding=(1, 0), bias=False)
  (conv3_3): Conv2d(1024, 1024, kernel_size=(1, 3), stride=(2, 2), padding=(0, 1), bias=False)
  (bn3): BatchNorm2d(1024, eps=1e-05, momentum=0.1, affine=True, track_running_stats=True)
  (conv4): Conv2d(1024, 1024, kernel_size=(3, 3), stride=(1, 1), padding=(1, 1))
  (conv4_2): Conv2d(1024, 1024, kernel_size=(3, 1), stride=(1, 1), padding=(1, 0), bias=False)
  (conv4_3): Conv2d(1024, 1024, kernel_size=(1, 3), stride=(1, 1), padding=(0, 1), bias=False)
  (resconv4): Conv2d(2048, 2048, kernel_size=(1, 1), stride=(2, 2))
  (bn4): BatchNorm2d(1024, eps=1e-05, momentum=0.1, affine=True, track_running_stats=True)
  (conv5): Conv2d(2048, 2048, kernel_size=(3, 3), stride=(2, 2), padding=(1, 1))
  (conv5_2): Conv2d(2048, 2048, kernel_size=(3, 1), stride=(2, 2), padding=(1, 0), bias=False)
  (conv5_3): Conv2d(2048, 2048, kernel_size=(1, 3), stride=(2, 2), padding=(0, 1), bias=False)
  (bn5): BatchNorm2d(2048, eps=1e-05, momentum=0.1, affine=True, track_running_stats=True)
  (conv6): Conv2d(2048, 2048, kernel_size=(3, 3), stride=(1, 1), padding=(1, 1))
  (conv6_2): Conv2d(2048, 2048, kernel_size=(3, 1), stride=(1, 1), padding=(1, 0), bias=False)
  (conv6_3): Conv2d(2048, 2048, kernel_size=(1, 3), stride=(1, 1), padding=(0, 1), bias=False)
  (bn6): BatchNorm2d(2048, eps=1e-05, momentum=0.1, affine=True, track_running_stats=True)
  (deconv1): ConvTranspose2d(4096, 2048, kernel_size=(3, 3), stride=(2, 2), padding=(1, 1), output_padding=(1, 1))
  (conv11_1): Conv2d(512, 512, kernel_size=(3, 3), stride=(1, 1), padding=(1, 1))
  (deconv_bn1): BatchNorm2d(512, eps=1e-05, momentum=0.1, affine=True, track_running_stats=True)
  (deconv2): ConvTranspose2d(4096, 1024, kernel_size=(3, 3), stride=(2, 2), padding=(1, 1), output_padding=(1, 1))
  (conv12_1): Conv2d(128, 128, kernel_size=(3, 3), stride=(1, 1), padding=(1, 1))
  (deconv_bn2): BatchNorm2d(128, eps=1e-05, momentum=0.1, affine=True, track_running_stats=True)
  (deconv3): ConvTranspose2d(2048, 128, kernel_size=(3, 3), stride=(1, 1), padding=(1, 1))
  (GP_conv0): Conv2d(384, 512, kernel_size=(1, 1), stride=(1, 1))
  (GP_pool1): AdaptiveMaxPool2d(output_size=(6, 6))
  (GP_conv1): Conv2d(384, 1024, kernel_size=(1, 1), stride=(1, 1))
  (GP_pool2): AdaptiveMaxPool2d(output_size=(3, 3))
  (GP_conv2): Conv2d(384, 2048, kernel_size=(1, 1), stride=(1, 1))
)
[2022-07-22 14:40:26,708][feature_train_ori.py][L121][INFO] Epoch 0 begin
[2022-07-22 14:41:43,693][feature_train_ori.py][L371][INFO] Auto Encoder training
[2022-07-22 14:41:43,693][feature_train_ori.py][L372][INFO] Encoder & Decoder Model : 
[2022-07-22 14:41:50,531][feature_train_ori.py][L384][INFO] Concatenation(
  (relu): LeakyReLU(negative_slope=0.01)
  (conv): Conv2d(384, 512, kernel_size=(3, 3), stride=(1, 1), padding=(1, 1))
  (conv1): Conv2d(512, 512, kernel_size=(3, 3), stride=(1, 1), padding=(1, 1))
  (conv1_2): Conv2d(512, 512, kernel_size=(3, 1), stride=(1, 1), padding=(1, 0), bias=False)
  (conv1_3): Conv2d(512, 512, kernel_size=(1, 3), stride=(1, 1), padding=(0, 1), bias=False)
  (bn1): BatchNorm2d(512, eps=1e-05, momentum=0.1, affine=True, track_running_stats=True)
  (conv2): Conv2d(512, 512, kernel_size=(3, 3), stride=(1, 1), padding=(1, 1))
  (conv2_2): Conv2d(512, 512, kernel_size=(3, 1), stride=(1, 1), padding=(1, 0), bias=False)
  (conv2_3): Conv2d(512, 512, kernel_size=(1, 3), stride=(1, 1), padding=(0, 1), bias=False)
  (resconv2): Conv2d(1024, 1024, kernel_size=(1, 1), stride=(2, 2))
  (bn2): BatchNorm2d(512, eps=1e-05, momentum=0.1, affine=True, track_running_stats=True)
  (conv3): Conv2d(1024, 1024, kernel_size=(3, 3), stride=(2, 2), padding=(1, 1))
  (conv3_2): Conv2d(1024, 1024, kernel_size=(3, 1), stride=(2, 2), padding=(1, 0), bias=False)
  (conv3_3): Conv2d(1024, 1024, kernel_size=(1, 3), stride=(2, 2), padding=(0, 1), bias=False)
  (bn3): BatchNorm2d(1024, eps=1e-05, momentum=0.1, affine=True, track_running_stats=True)
  (conv4): Conv2d(1024, 1024, kernel_size=(3, 3), stride=(1, 1), padding=(1, 1))
  (conv4_2): Conv2d(1024, 1024, kernel_size=(3, 1), stride=(1, 1), padding=(1, 0), bias=False)
  (conv4_3): Conv2d(1024, 1024, kernel_size=(1, 3), stride=(1, 1), padding=(0, 1), bias=False)
  (resconv4): Conv2d(2048, 2048, kernel_size=(1, 1), stride=(2, 2))
  (bn4): BatchNorm2d(1024, eps=1e-05, momentum=0.1, affine=True, track_running_stats=True)
  (conv5): Conv2d(2048, 2048, kernel_size=(3, 3), stride=(2, 2), padding=(1, 1))
  (conv5_2): Conv2d(2048, 2048, kernel_size=(3, 1), stride=(2, 2), padding=(1, 0), bias=False)
  (conv5_3): Conv2d(2048, 2048, kernel_size=(1, 3), stride=(2, 2), padding=(0, 1), bias=False)
  (bn5): BatchNorm2d(2048, eps=1e-05, momentum=0.1, affine=True, track_running_stats=True)
  (conv6): Conv2d(2048, 2048, kernel_size=(3, 3), stride=(1, 1), padding=(1, 1))
  (conv6_2): Conv2d(2048, 2048, kernel_size=(3, 1), stride=(1, 1), padding=(1, 0), bias=False)
  (conv6_3): Conv2d(2048, 2048, kernel_size=(1, 3), stride=(1, 1), padding=(0, 1), bias=False)
  (bn6): BatchNorm2d(2048, eps=1e-05, momentum=0.1, affine=True, track_running_stats=True)
  (deconv1): ConvTranspose2d(4096, 2048, kernel_size=(3, 3), stride=(2, 2), padding=(1, 1), output_padding=(1, 1))
  (conv11_1): Conv2d(512, 512, kernel_size=(3, 3), stride=(1, 1), padding=(1, 1))
  (deconv_bn1): BatchNorm2d(512, eps=1e-05, momentum=0.1, affine=True, track_running_stats=True)
  (deconv2): ConvTranspose2d(4096, 1024, kernel_size=(3, 3), stride=(2, 2), padding=(1, 1), output_padding=(1, 1))
  (conv12_1): Conv2d(128, 128, kernel_size=(3, 3), stride=(1, 1), padding=(1, 1))
  (deconv_bn2): BatchNorm2d(128, eps=1e-05, momentum=0.1, affine=True, track_running_stats=True)
  (deconv3): ConvTranspose2d(2048, 128, kernel_size=(3, 3), stride=(1, 1), padding=(1, 1))
  (GP_conv0): Conv2d(384, 512, kernel_size=(1, 1), stride=(1, 1))
  (GP_pool1): AdaptiveMaxPool2d(output_size=(22, 22))
  (GP_conv1): Conv2d(384, 1024, kernel_size=(1, 1), stride=(1, 1))
  (GP_pool2): AdaptiveMaxPool2d(output_size=(11, 11))
  (GP_conv2): Conv2d(384, 2048, kernel_size=(1, 1), stride=(1, 1))
)
[2022-07-22 14:41:57,592][feature_train_ori.py][L121][INFO] Epoch 0 begin
[2022-07-22 14:44:14,988][feature_train_ori.py][L371][INFO] Auto Encoder training
[2022-07-22 14:44:14,989][feature_train_ori.py][L372][INFO] Encoder & Decoder Model : 
[2022-07-22 14:44:21,827][feature_train_ori.py][L384][INFO] Concatenation(
  (relu): LeakyReLU(negative_slope=0.01)
  (conv): Conv2d(384, 512, kernel_size=(3, 3), stride=(1, 1), padding=(1, 1))
  (conv1): Conv2d(512, 512, kernel_size=(3, 3), stride=(1, 1), padding=(1, 1))
  (conv1_2): Conv2d(512, 512, kernel_size=(3, 1), stride=(1, 1), padding=(1, 0), bias=False)
  (conv1_3): Conv2d(512, 512, kernel_size=(1, 3), stride=(1, 1), padding=(0, 1), bias=False)
  (bn1): BatchNorm2d(512, eps=1e-05, momentum=0.1, affine=True, track_running_stats=True)
  (conv2): Conv2d(512, 512, kernel_size=(3, 3), stride=(1, 1), padding=(1, 1))
  (conv2_2): Conv2d(512, 512, kernel_size=(3, 1), stride=(1, 1), padding=(1, 0), bias=False)
  (conv2_3): Conv2d(512, 512, kernel_size=(1, 3), stride=(1, 1), padding=(0, 1), bias=False)
  (resconv2): Conv2d(1024, 1024, kernel_size=(1, 1), stride=(2, 2))
  (bn2): BatchNorm2d(512, eps=1e-05, momentum=0.1, affine=True, track_running_stats=True)
  (conv3): Conv2d(1024, 1024, kernel_size=(3, 3), stride=(2, 2), padding=(1, 1))
  (conv3_2): Conv2d(1024, 1024, kernel_size=(3, 1), stride=(2, 2), padding=(1, 0), bias=False)
  (conv3_3): Conv2d(1024, 1024, kernel_size=(1, 3), stride=(2, 2), padding=(0, 1), bias=False)
  (bn3): BatchNorm2d(1024, eps=1e-05, momentum=0.1, affine=True, track_running_stats=True)
  (conv4): Conv2d(1024, 1024, kernel_size=(3, 3), stride=(1, 1), padding=(1, 1))
  (conv4_2): Conv2d(1024, 1024, kernel_size=(3, 1), stride=(1, 1), padding=(1, 0), bias=False)
  (conv4_3): Conv2d(1024, 1024, kernel_size=(1, 3), stride=(1, 1), padding=(0, 1), bias=False)
  (resconv4): Conv2d(2048, 2048, kernel_size=(1, 1), stride=(2, 2))
  (bn4): BatchNorm2d(1024, eps=1e-05, momentum=0.1, affine=True, track_running_stats=True)
  (conv5): Conv2d(2048, 2048, kernel_size=(3, 3), stride=(2, 2), padding=(1, 1))
  (conv5_2): Conv2d(2048, 2048, kernel_size=(3, 1), stride=(2, 2), padding=(1, 0), bias=False)
  (conv5_3): Conv2d(2048, 2048, kernel_size=(1, 3), stride=(2, 2), padding=(0, 1), bias=False)
  (bn5): BatchNorm2d(2048, eps=1e-05, momentum=0.1, affine=True, track_running_stats=True)
  (conv6): Conv2d(2048, 2048, kernel_size=(3, 3), stride=(1, 1), padding=(1, 1))
  (conv6_2): Conv2d(2048, 2048, kernel_size=(3, 1), stride=(1, 1), padding=(1, 0), bias=False)
  (conv6_3): Conv2d(2048, 2048, kernel_size=(1, 3), stride=(1, 1), padding=(0, 1), bias=False)
  (bn6): BatchNorm2d(2048, eps=1e-05, momentum=0.1, affine=True, track_running_stats=True)
  (deconv1): ConvTranspose2d(4096, 2048, kernel_size=(3, 3), stride=(2, 2), padding=(1, 1), output_padding=(1, 1))
  (conv11_1): Conv2d(512, 512, kernel_size=(3, 3), stride=(1, 1), padding=(1, 1))
  (deconv_bn1): BatchNorm2d(512, eps=1e-05, momentum=0.1, affine=True, track_running_stats=True)
  (deconv2): ConvTranspose2d(4096, 1024, kernel_size=(3, 3), stride=(2, 2), padding=(1, 1), output_padding=(1, 1))
  (conv12_1): Conv2d(128, 128, kernel_size=(3, 3), stride=(1, 1), padding=(1, 1))
  (deconv_bn2): BatchNorm2d(128, eps=1e-05, momentum=0.1, affine=True, track_running_stats=True)
  (deconv3): ConvTranspose2d(2048, 128, kernel_size=(3, 3), stride=(1, 1), padding=(1, 1))
  (GP_conv0): Conv2d(384, 512, kernel_size=(1, 1), stride=(1, 1))
  (GP_pool1): AdaptiveMaxPool2d(output_size=(22, 22))
  (GP_conv1): Conv2d(384, 1024, kernel_size=(1, 1), stride=(1, 1))
  (GP_pool2): AdaptiveMaxPool2d(output_size=(11, 11))
  (GP_conv2): Conv2d(384, 2048, kernel_size=(1, 1), stride=(1, 1))
)
[2022-07-22 14:44:28,942][feature_train_ori.py][L121][INFO] Epoch 0 begin
[2022-07-22 14:45:48,591][feature_train_ori.py][L371][INFO] Auto Encoder training
[2022-07-22 14:45:48,591][feature_train_ori.py][L372][INFO] Encoder & Decoder Model : 
[2022-07-22 14:45:55,411][feature_train_ori.py][L384][INFO] Concatenation(
  (relu): LeakyReLU(negative_slope=0.01)
  (conv): Conv2d(384, 512, kernel_size=(3, 3), stride=(1, 1), padding=(1, 1))
  (conv1): Conv2d(512, 512, kernel_size=(3, 3), stride=(1, 1), padding=(1, 1))
  (conv1_2): Conv2d(512, 512, kernel_size=(3, 1), stride=(1, 1), padding=(1, 0), bias=False)
  (conv1_3): Conv2d(512, 512, kernel_size=(1, 3), stride=(1, 1), padding=(0, 1), bias=False)
  (bn1): BatchNorm2d(512, eps=1e-05, momentum=0.1, affine=True, track_running_stats=True)
  (conv2): Conv2d(512, 512, kernel_size=(3, 3), stride=(1, 1), padding=(1, 1))
  (conv2_2): Conv2d(512, 512, kernel_size=(3, 1), stride=(1, 1), padding=(1, 0), bias=False)
  (conv2_3): Conv2d(512, 512, kernel_size=(1, 3), stride=(1, 1), padding=(0, 1), bias=False)
  (resconv2): Conv2d(1024, 1024, kernel_size=(1, 1), stride=(2, 2))
  (bn2): BatchNorm2d(512, eps=1e-05, momentum=0.1, affine=True, track_running_stats=True)
  (conv3): Conv2d(1024, 1024, kernel_size=(3, 3), stride=(2, 2), padding=(1, 1))
  (conv3_2): Conv2d(1024, 1024, kernel_size=(3, 1), stride=(2, 2), padding=(1, 0), bias=False)
  (conv3_3): Conv2d(1024, 1024, kernel_size=(1, 3), stride=(2, 2), padding=(0, 1), bias=False)
  (bn3): BatchNorm2d(1024, eps=1e-05, momentum=0.1, affine=True, track_running_stats=True)
  (conv4): Conv2d(1024, 1024, kernel_size=(3, 3), stride=(1, 1), padding=(1, 1))
  (conv4_2): Conv2d(1024, 1024, kernel_size=(3, 1), stride=(1, 1), padding=(1, 0), bias=False)
  (conv4_3): Conv2d(1024, 1024, kernel_size=(1, 3), stride=(1, 1), padding=(0, 1), bias=False)
  (resconv4): Conv2d(2048, 2048, kernel_size=(1, 1), stride=(2, 2))
  (bn4): BatchNorm2d(1024, eps=1e-05, momentum=0.1, affine=True, track_running_stats=True)
  (conv5): Conv2d(2048, 2048, kernel_size=(3, 3), stride=(2, 2), padding=(1, 1))
  (conv5_2): Conv2d(2048, 2048, kernel_size=(3, 1), stride=(2, 2), padding=(1, 0), bias=False)
  (conv5_3): Conv2d(2048, 2048, kernel_size=(1, 3), stride=(2, 2), padding=(0, 1), bias=False)
  (bn5): BatchNorm2d(2048, eps=1e-05, momentum=0.1, affine=True, track_running_stats=True)
  (conv6): Conv2d(2048, 2048, kernel_size=(3, 3), stride=(1, 1), padding=(1, 1))
  (conv6_2): Conv2d(2048, 2048, kernel_size=(3, 1), stride=(1, 1), padding=(1, 0), bias=False)
  (conv6_3): Conv2d(2048, 2048, kernel_size=(1, 3), stride=(1, 1), padding=(0, 1), bias=False)
  (bn6): BatchNorm2d(2048, eps=1e-05, momentum=0.1, affine=True, track_running_stats=True)
  (deconv1): ConvTranspose2d(4096, 2048, kernel_size=(3, 3), stride=(2, 2), padding=(1, 1), output_padding=(1, 1))
  (conv11_1): Conv2d(512, 512, kernel_size=(3, 3), stride=(1, 1), padding=(1, 1))
  (deconv_bn1): BatchNorm2d(512, eps=1e-05, momentum=0.1, affine=True, track_running_stats=True)
  (deconv2): ConvTranspose2d(4096, 1024, kernel_size=(3, 3), stride=(2, 2), padding=(1, 1), output_padding=(1, 1))
  (conv12_1): Conv2d(128, 128, kernel_size=(3, 3), stride=(1, 1), padding=(1, 1))
  (deconv_bn2): BatchNorm2d(128, eps=1e-05, momentum=0.1, affine=True, track_running_stats=True)
  (deconv3): ConvTranspose2d(2048, 128, kernel_size=(3, 3), stride=(1, 1), padding=(1, 1))
  (GP_conv0): Conv2d(384, 512, kernel_size=(1, 1), stride=(1, 1))
  (GP_pool1): AdaptiveMaxPool2d(output_size=(44, 44))
  (GP_conv1): Conv2d(384, 1024, kernel_size=(1, 1), stride=(1, 1))
  (GP_pool2): AdaptiveMaxPool2d(output_size=(22, 22))
  (GP_conv2): Conv2d(384, 2048, kernel_size=(1, 1), stride=(1, 1))
)
[2022-07-22 14:46:02,459][feature_train_ori.py][L121][INFO] Epoch 0 begin
[2022-07-22 14:46:56,110][feature_train_ori.py][L371][INFO] Auto Encoder training
[2022-07-22 14:46:56,110][feature_train_ori.py][L372][INFO] Encoder & Decoder Model : 
[2022-07-22 14:47:02,955][feature_train_ori.py][L384][INFO] Concatenation(
  (relu): LeakyReLU(negative_slope=0.01)
  (conv): Conv2d(384, 512, kernel_size=(3, 3), stride=(1, 1), padding=(1, 1))
  (conv1): Conv2d(512, 512, kernel_size=(3, 3), stride=(1, 1), padding=(1, 1))
  (conv1_2): Conv2d(512, 512, kernel_size=(3, 1), stride=(1, 1), padding=(1, 0), bias=False)
  (conv1_3): Conv2d(512, 512, kernel_size=(1, 3), stride=(1, 1), padding=(0, 1), bias=False)
  (bn1): BatchNorm2d(512, eps=1e-05, momentum=0.1, affine=True, track_running_stats=True)
  (conv2): Conv2d(512, 512, kernel_size=(3, 3), stride=(1, 1), padding=(1, 1))
  (conv2_2): Conv2d(512, 512, kernel_size=(3, 1), stride=(1, 1), padding=(1, 0), bias=False)
  (conv2_3): Conv2d(512, 512, kernel_size=(1, 3), stride=(1, 1), padding=(0, 1), bias=False)
  (resconv2): Conv2d(1024, 1024, kernel_size=(1, 1), stride=(2, 2))
  (bn2): BatchNorm2d(512, eps=1e-05, momentum=0.1, affine=True, track_running_stats=True)
  (conv3): Conv2d(1024, 1024, kernel_size=(3, 3), stride=(2, 2), padding=(1, 1))
  (conv3_2): Conv2d(1024, 1024, kernel_size=(3, 1), stride=(2, 2), padding=(1, 0), bias=False)
  (conv3_3): Conv2d(1024, 1024, kernel_size=(1, 3), stride=(2, 2), padding=(0, 1), bias=False)
  (bn3): BatchNorm2d(1024, eps=1e-05, momentum=0.1, affine=True, track_running_stats=True)
  (conv4): Conv2d(1024, 1024, kernel_size=(3, 3), stride=(1, 1), padding=(1, 1))
  (conv4_2): Conv2d(1024, 1024, kernel_size=(3, 1), stride=(1, 1), padding=(1, 0), bias=False)
  (conv4_3): Conv2d(1024, 1024, kernel_size=(1, 3), stride=(1, 1), padding=(0, 1), bias=False)
  (resconv4): Conv2d(2048, 2048, kernel_size=(1, 1), stride=(2, 2))
  (bn4): BatchNorm2d(1024, eps=1e-05, momentum=0.1, affine=True, track_running_stats=True)
  (conv5): Conv2d(2048, 2048, kernel_size=(3, 3), stride=(2, 2), padding=(1, 1))
  (conv5_2): Conv2d(2048, 2048, kernel_size=(3, 1), stride=(2, 2), padding=(1, 0), bias=False)
  (conv5_3): Conv2d(2048, 2048, kernel_size=(1, 3), stride=(2, 2), padding=(0, 1), bias=False)
  (bn5): BatchNorm2d(2048, eps=1e-05, momentum=0.1, affine=True, track_running_stats=True)
  (conv6): Conv2d(2048, 2048, kernel_size=(3, 3), stride=(1, 1), padding=(1, 1))
  (conv6_2): Conv2d(2048, 2048, kernel_size=(3, 1), stride=(1, 1), padding=(1, 0), bias=False)
  (conv6_3): Conv2d(2048, 2048, kernel_size=(1, 3), stride=(1, 1), padding=(0, 1), bias=False)
  (bn6): BatchNorm2d(2048, eps=1e-05, momentum=0.1, affine=True, track_running_stats=True)
  (deconv1): ConvTranspose2d(4096, 2048, kernel_size=(3, 3), stride=(2, 2), padding=(1, 1), output_padding=(1, 1))
  (conv11_1): Conv2d(512, 512, kernel_size=(3, 3), stride=(1, 1), padding=(1, 1))
  (deconv_bn1): BatchNorm2d(512, eps=1e-05, momentum=0.1, affine=True, track_running_stats=True)
  (deconv2): ConvTranspose2d(4096, 1024, kernel_size=(3, 3), stride=(2, 2), padding=(1, 1), output_padding=(1, 1))
  (conv12_1): Conv2d(128, 128, kernel_size=(3, 3), stride=(1, 1), padding=(1, 1))
  (deconv_bn2): BatchNorm2d(128, eps=1e-05, momentum=0.1, affine=True, track_running_stats=True)
  (deconv3): ConvTranspose2d(2048, 128, kernel_size=(3, 3), stride=(1, 1), padding=(1, 1))
  (GP_conv0): Conv2d(384, 512, kernel_size=(1, 1), stride=(1, 1))
  (GP_pool1): AdaptiveMaxPool2d(output_size=(11, 11))
  (GP_conv1): Conv2d(384, 1024, kernel_size=(1, 1), stride=(1, 1))
  (GP_pool2): AdaptiveMaxPool2d(output_size=(6, 6))
  (GP_conv2): Conv2d(384, 2048, kernel_size=(1, 1), stride=(1, 1))
)
[2022-07-22 14:47:10,021][feature_train_ori.py][L121][INFO] Epoch 0 begin
[2022-07-22 14:50:31,564][feature_train_ori.py][L371][INFO] Auto Encoder training
[2022-07-22 14:50:31,564][feature_train_ori.py][L372][INFO] Encoder & Decoder Model : 
[2022-07-22 14:50:38,414][feature_train_ori.py][L384][INFO] Concatenation(
  (relu): LeakyReLU(negative_slope=0.01)
  (conv): Conv2d(384, 512, kernel_size=(3, 3), stride=(1, 1), padding=(1, 1))
  (conv1): Conv2d(512, 512, kernel_size=(3, 3), stride=(1, 1), padding=(1, 1))
  (conv1_2): Conv2d(512, 512, kernel_size=(3, 1), stride=(1, 1), padding=(1, 0), bias=False)
  (conv1_3): Conv2d(512, 512, kernel_size=(1, 3), stride=(1, 1), padding=(0, 1), bias=False)
  (bn1): BatchNorm2d(512, eps=1e-05, momentum=0.1, affine=True, track_running_stats=True)
  (conv2): Conv2d(512, 512, kernel_size=(3, 3), stride=(1, 1), padding=(1, 1))
  (conv2_2): Conv2d(512, 512, kernel_size=(3, 1), stride=(1, 1), padding=(1, 0), bias=False)
  (conv2_3): Conv2d(512, 512, kernel_size=(1, 3), stride=(1, 1), padding=(0, 1), bias=False)
  (resconv2): Conv2d(1024, 1024, kernel_size=(1, 1), stride=(2, 2))
  (bn2): BatchNorm2d(512, eps=1e-05, momentum=0.1, affine=True, track_running_stats=True)
  (conv3): Conv2d(1024, 1024, kernel_size=(3, 3), stride=(2, 2), padding=(1, 1))
  (conv3_2): Conv2d(1024, 1024, kernel_size=(3, 1), stride=(2, 2), padding=(1, 0), bias=False)
  (conv3_3): Conv2d(1024, 1024, kernel_size=(1, 3), stride=(2, 2), padding=(0, 1), bias=False)
  (bn3): BatchNorm2d(1024, eps=1e-05, momentum=0.1, affine=True, track_running_stats=True)
  (conv4): Conv2d(1024, 1024, kernel_size=(3, 3), stride=(1, 1), padding=(1, 1))
  (conv4_2): Conv2d(1024, 1024, kernel_size=(3, 1), stride=(1, 1), padding=(1, 0), bias=False)
  (conv4_3): Conv2d(1024, 1024, kernel_size=(1, 3), stride=(1, 1), padding=(0, 1), bias=False)
  (resconv4): Conv2d(2048, 2048, kernel_size=(1, 1), stride=(2, 2))
  (bn4): BatchNorm2d(1024, eps=1e-05, momentum=0.1, affine=True, track_running_stats=True)
  (conv5): Conv2d(2048, 2048, kernel_size=(3, 3), stride=(2, 2), padding=(1, 1))
  (conv5_2): Conv2d(2048, 2048, kernel_size=(3, 1), stride=(2, 2), padding=(1, 0), bias=False)
  (conv5_3): Conv2d(2048, 2048, kernel_size=(1, 3), stride=(2, 2), padding=(0, 1), bias=False)
  (bn5): BatchNorm2d(2048, eps=1e-05, momentum=0.1, affine=True, track_running_stats=True)
  (conv6): Conv2d(2048, 2048, kernel_size=(3, 3), stride=(1, 1), padding=(1, 1))
  (conv6_2): Conv2d(2048, 2048, kernel_size=(3, 1), stride=(1, 1), padding=(1, 0), bias=False)
  (conv6_3): Conv2d(2048, 2048, kernel_size=(1, 3), stride=(1, 1), padding=(0, 1), bias=False)
  (bn6): BatchNorm2d(2048, eps=1e-05, momentum=0.1, affine=True, track_running_stats=True)
  (deconv1): ConvTranspose2d(4096, 2048, kernel_size=(3, 3), stride=(2, 2), padding=(1, 1), output_padding=(1, 1))
  (conv11_1): Conv2d(512, 512, kernel_size=(3, 3), stride=(1, 1), padding=(1, 1))
  (deconv_bn1): BatchNorm2d(512, eps=1e-05, momentum=0.1, affine=True, track_running_stats=True)
  (deconv2): ConvTranspose2d(4096, 1024, kernel_size=(3, 3), stride=(2, 2), padding=(1, 1), output_padding=(1, 1))
  (conv12_1): Conv2d(128, 128, kernel_size=(3, 3), stride=(1, 1), padding=(1, 1))
  (deconv_bn2): BatchNorm2d(128, eps=1e-05, momentum=0.1, affine=True, track_running_stats=True)
  (deconv3): ConvTranspose2d(2048, 128, kernel_size=(3, 3), stride=(1, 1), padding=(1, 1))
  (GP_conv0): Conv2d(384, 512, kernel_size=(1, 1), stride=(1, 1))
  (GP_pool1): AdaptiveMaxPool2d(output_size=(6, 6))
  (GP_conv1): Conv2d(384, 1024, kernel_size=(1, 1), stride=(1, 1))
  (GP_pool2): AdaptiveMaxPool2d(output_size=(3, 3))
  (GP_conv2): Conv2d(384, 2048, kernel_size=(1, 1), stride=(1, 1))
)
[2022-07-22 14:50:45,562][feature_train_ori.py][L121][INFO] Epoch 0 begin
[2022-07-22 14:51:57,421][feature_train_ori.py][L341][INFO] Step [1/2500000=0.00%] | Epoch 0 | Time 71.386 (71.386) | Lr 0.0001 | AIC Loss 0.37069 (0.37069) | All Losses 2.09860 (2.09860)
[2022-07-22 14:53:08,769][feature_train_ori.py][L341][INFO] Step [2/2500000=0.00%] | Epoch 0 | Time 71.321 (71.321) | Lr 0.0001 | AIC Loss 0.40056 (0.40056) | All Losses 1.95092 (1.95092)
…
[2022-07-22 20:46:29,740][feature_train_ori.py][L341][INFO] Step [71/2500000=0.00%] | Epoch 0 | Time 66.264 (66.264) | Lr 0.0001 | AIC Loss 0.08636 (0.08636) | All Losses 0.12640 (0.12640)
[2022-07-22 20:47:35,583][feature_train_ori.py][L341][INFO] Step [72/2500000=0.00%] | Epoch 0 | Time 65.815 (65.815) | Lr 0.0001 | AIC Loss 0.09281 (0.09281) | All Losses 0.11727 (0.11727)
[2022-07-22 20:48:32,531][feature_train_ori.py][L371][INFO] Auto Encoder training
[2022-07-22 20:48:32,531][feature_train_ori.py][L372][INFO] Encoder & Decoder Model : 
[2022-07-22 20:48:40,323][feature_train_ori.py][L384][INFO] Concatenation(
  (relu): LeakyReLU(negative_slope=0.01)
  (conv): Conv2d(384, 512, kernel_size=(3, 3), stride=(1, 1), padding=(1, 1))
  (conv1): Conv2d(512, 512, kernel_size=(3, 3), stride=(1, 1), padding=(1, 1))
  (conv1_2): Conv2d(512, 512, kernel_size=(3, 1), stride=(1, 1), padding=(1, 0), bias=False)
  (conv1_3): Conv2d(512, 512, kernel_size=(1, 3), stride=(1, 1), padding=(0, 1), bias=False)
  (bn1): BatchNorm2d(512, eps=1e-05, momentum=0.1, affine=True, track_running_stats=True)
  (conv2): Conv2d(512, 512, kernel_size=(3, 3), stride=(1, 1), padding=(1, 1))
  (conv2_2): Conv2d(512, 512, kernel_size=(3, 1), stride=(1, 1), padding=(1, 0), bias=False)
  (conv2_3): Conv2d(512, 512, kernel_size=(1, 3), stride=(1, 1), padding=(0, 1), bias=False)
  (resconv2): Conv2d(1024, 1024, kernel_size=(1, 1), stride=(2, 2))
  (bn2): BatchNorm2d(512, eps=1e-05, momentum=0.1, affine=True, track_running_stats=True)
  (conv3): Conv2d(1024, 1024, kernel_size=(3, 3), stride=(2, 2), padding=(1, 1))
  (conv3_2): Conv2d(1024, 1024, kernel_size=(3, 1), stride=(2, 2), padding=(1, 0), bias=False)
  (conv3_3): Conv2d(1024, 1024, kernel_size=(1, 3), stride=(2, 2), padding=(0, 1), bias=False)
  (bn3): BatchNorm2d(1024, eps=1e-05, momentum=0.1, affine=True, track_running_stats=True)
  (conv4): Conv2d(1024, 1024, kernel_size=(3, 3), stride=(1, 1), padding=(1, 1))
  (conv4_2): Conv2d(1024, 1024, kernel_size=(3, 1), stride=(1, 1), padding=(1, 0), bias=False)
  (conv4_3): Conv2d(1024, 1024, kernel_size=(1, 3), stride=(1, 1), padding=(0, 1), bias=False)
  (resconv4): Conv2d(2048, 2048, kernel_size=(1, 1), stride=(2, 2))
  (bn4): BatchNorm2d(1024, eps=1e-05, momentum=0.1, affine=True, track_running_stats=True)
  (conv5): Conv2d(2048, 2048, kernel_size=(3, 3), stride=(2, 2), padding=(1, 1))
  (conv5_2): Conv2d(2048, 2048, kernel_size=(3, 1), stride=(2, 2), padding=(1, 0), bias=False)
  (conv5_3): Conv2d(2048, 2048, kernel_size=(1, 3), stride=(2, 2), padding=(0, 1), bias=False)
  (bn5): BatchNorm2d(2048, eps=1e-05, momentum=0.1, affine=True, track_running_stats=True)
  (conv6): Conv2d(2048, 2048, kernel_size=(3, 3), stride=(1, 1), padding=(1, 1))
  (conv6_2): Conv2d(2048, 2048, kernel_size=(3, 1), stride=(1, 1), padding=(1, 0), bias=False)
  (conv6_3): Conv2d(2048, 2048, kernel_size=(1, 3), stride=(1, 1), padding=(0, 1), bias=False)
  (bn6): BatchNorm2d(2048, eps=1e-05, momentum=0.1, affine=True, track_running_stats=True)
  (deconv1): ConvTranspose2d(4096, 2048, kernel_size=(3, 3), stride=(2, 2), padding=(1, 1), output_padding=(1, 1))
  (conv11_1): Conv2d(512, 512, kernel_size=(3, 3), stride=(1, 1), padding=(1, 1))
  (deconv_bn1): BatchNorm2d(512, eps=1e-05, momentum=0.1, affine=True, track_running_stats=True)
  (deconv2): ConvTranspose2d(4096, 1024, kernel_size=(3, 3), stride=(2, 2), padding=(1, 1), output_padding=(1, 1))
  (conv12_1): Conv2d(128, 128, kernel_size=(3, 3), stride=(1, 1), padding=(1, 1))
  (deconv_bn2): BatchNorm2d(128, eps=1e-05, momentum=0.1, affine=True, track_running_stats=True)
  (deconv3): ConvTranspose2d(2048, 128, kernel_size=(3, 3), stride=(1, 1), padding=(1, 1))
  (GP_conv0): Conv2d(384, 512, kernel_size=(1, 1), stride=(1, 1))
  (GP_pool1): AdaptiveMaxPool2d(output_size=(6, 6))
  (GP_conv1): Conv2d(384, 1024, kernel_size=(1, 1), stride=(1, 1))
  (GP_pool2): AdaptiveMaxPool2d(output_size=(3, 3))
  (GP_conv2): Conv2d(384, 2048, kernel_size=(1, 1), stride=(1, 1))
)
[2022-07-22 20:48:56,821][feature_train_ori.py][L371][INFO] Auto Encoder training
[2022-07-22 20:48:56,821][feature_train_ori.py][L372][INFO] Encoder & Decoder Model : 
[2022-07-22 20:49:03,689][feature_train_ori.py][L384][INFO] Concatenation(
  (relu): LeakyReLU(negative_slope=0.01)
  (conv): Conv2d(384, 512, kernel_size=(3, 3), stride=(1, 1), padding=(1, 1))
  (conv1): Conv2d(512, 512, kernel_size=(3, 3), stride=(1, 1), padding=(1, 1))
  (conv1_2): Conv2d(512, 512, kernel_size=(3, 1), stride=(1, 1), padding=(1, 0), bias=False)
  (conv1_3): Conv2d(512, 512, kernel_size=(1, 3), stride=(1, 1), padding=(0, 1), bias=False)
  (bn1): BatchNorm2d(512, eps=1e-05, momentum=0.1, affine=True, track_running_stats=True)
  (conv2): Conv2d(512, 512, kernel_size=(3, 3), stride=(1, 1), padding=(1, 1))
  (conv2_2): Conv2d(512, 512, kernel_size=(3, 1), stride=(1, 1), padding=(1, 0), bias=False)
  (conv2_3): Conv2d(512, 512, kernel_size=(1, 3), stride=(1, 1), padding=(0, 1), bias=False)
  (resconv2): Conv2d(1024, 1024, kernel_size=(1, 1), stride=(2, 2))
  (bn2): BatchNorm2d(512, eps=1e-05, momentum=0.1, affine=True, track_running_stats=True)
  (conv3): Conv2d(1024, 1024, kernel_size=(3, 3), stride=(2, 2), padding=(1, 1))
  (conv3_2): Conv2d(1024, 1024, kernel_size=(3, 1), stride=(2, 2), padding=(1, 0), bias=False)
  (conv3_3): Conv2d(1024, 1024, kernel_size=(1, 3), stride=(2, 2), padding=(0, 1), bias=False)
  (bn3): BatchNorm2d(1024, eps=1e-05, momentum=0.1, affine=True, track_running_stats=True)
  (conv4): Conv2d(1024, 1024, kernel_size=(3, 3), stride=(1, 1), padding=(1, 1))
  (conv4_2): Conv2d(1024, 1024, kernel_size=(3, 1), stride=(1, 1), padding=(1, 0), bias=False)
  (conv4_3): Conv2d(1024, 1024, kernel_size=(1, 3), stride=(1, 1), padding=(0, 1), bias=False)
  (resconv4): Conv2d(2048, 2048, kernel_size=(1, 1), stride=(2, 2))
  (bn4): BatchNorm2d(1024, eps=1e-05, momentum=0.1, affine=True, track_running_stats=True)
  (conv5): Conv2d(2048, 2048, kernel_size=(3, 3), stride=(2, 2), padding=(1, 1))
  (conv5_2): Conv2d(2048, 2048, kernel_size=(3, 1), stride=(2, 2), padding=(1, 0), bias=False)
  (conv5_3): Conv2d(2048, 2048, kernel_size=(1, 3), stride=(2, 2), padding=(0, 1), bias=False)
  (bn5): BatchNorm2d(2048, eps=1e-05, momentum=0.1, affine=True, track_running_stats=True)
  (conv6): Conv2d(2048, 2048, kernel_size=(3, 3), stride=(1, 1), padding=(1, 1))
  (conv6_2): Conv2d(2048, 2048, kernel_size=(3, 1), stride=(1, 1), padding=(1, 0), bias=False)
  (conv6_3): Conv2d(2048, 2048, kernel_size=(1, 3), stride=(1, 1), padding=(0, 1), bias=False)
  (bn6): BatchNorm2d(2048, eps=1e-05, momentum=0.1, affine=True, track_running_stats=True)
  (deconv1): ConvTranspose2d(4096, 2048, kernel_size=(3, 3), stride=(2, 2), padding=(1, 1), output_padding=(1, 1))
  (conv11_1): Conv2d(512, 512, kernel_size=(3, 3), stride=(1, 1), padding=(1, 1))
  (deconv_bn1): BatchNorm2d(512, eps=1e-05, momentum=0.1, affine=True, track_running_stats=True)
  (deconv2): ConvTranspose2d(4096, 1024, kernel_size=(3, 3), stride=(2, 2), padding=(1, 1), output_padding=(1, 1))
  (conv12_1): Conv2d(128, 128, kernel_size=(3, 3), stride=(1, 1), padding=(1, 1))
  (deconv_bn2): BatchNorm2d(128, eps=1e-05, momentum=0.1, affine=True, track_running_stats=True)
  (deconv3): ConvTranspose2d(2048, 128, kernel_size=(3, 3), stride=(1, 1), padding=(1, 1))
  (GP_conv0): Conv2d(384, 512, kernel_size=(1, 1), stride=(1, 1))
  (GP_pool1): AdaptiveMaxPool2d(output_size=(6, 6))
  (GP_conv1): Conv2d(384, 1024, kernel_size=(1, 1), stride=(1, 1))
  (GP_pool2): AdaptiveMaxPool2d(output_size=(3, 3))
  (GP_conv2): Conv2d(384, 2048, kernel_size=(1, 1), stride=(1, 1))
)
[2022-07-22 20:49:10,823][feature_train_ori.py][L121][INFO] Epoch 0 begin
[2022-07-22 20:50:23,238][feature_train_ori.py][L341][INFO] Step [1/2500000=0.00%] | Epoch 0 | Time 71.919 (71.919) | Lr 0.0001 | AIC Loss 0.39287 (0.39287) | All Losses 0.56028 (0.56028)
[2022-07-22 20:51:34,651][feature_train_ori.py][L341][INFO] Step [2/2500000=0.00%] | Epoch 0 | Time 71.386 (71.386) | Lr 0.0001 | AIC Loss 0.40840 (0.40840) | All Losses 0.57014 (0.57014)
…
[2022-07-23 14:46:20,620][feature_train_ori.py][L341][INFO] Step [51/2500000=0.00%] | Epoch 0 | Time 63.598 (63.598) | Lr 0.0001 | AIC Loss 0.09837 (0.09837) | All Losses 0.21182 (0.21182)
[2022-07-23 14:47:24,698][feature_train_ori.py][L341][INFO] Step [52/2500000=0.00%] | Epoch 0 | Time 64.050 (64.050) | Lr 0.0001 | AIC Loss 0.11111 (0.11111) | All Losses 0.23731 (0.23731)
[2022-07-23 14:49:55,907][feature_train_ori.py][L371][INFO] Auto Encoder training
[2022-07-23 14:49:55,907][feature_train_ori.py][L372][INFO] Encoder & Decoder Model : 
[2022-07-23 14:50:03,233][feature_train_ori.py][L384][INFO] Concatenation(
  (relu): LeakyReLU(negative_slope=0.01)
  (conv): Conv2d(384, 512, kernel_size=(3, 3), stride=(1, 1), padding=(1, 1))
  (conv1): Conv2d(512, 512, kernel_size=(3, 3), stride=(1, 1), padding=(1, 1))
  (conv1_2): Conv2d(512, 512, kernel_size=(3, 1), stride=(1, 1), padding=(1, 0), bias=False)
  (conv1_3): Conv2d(512, 512, kernel_size=(1, 3), stride=(1, 1), padding=(0, 1), bias=False)
  (bn1): BatchNorm2d(512, eps=1e-05, momentum=0.1, affine=True, track_running_stats=True)
  (conv2): Conv2d(512, 512, kernel_size=(3, 3), stride=(1, 1), padding=(1, 1))
  (conv2_2): Conv2d(512, 512, kernel_size=(3, 1), stride=(1, 1), padding=(1, 0), bias=False)
  (conv2_3): Conv2d(512, 512, kernel_size=(1, 3), stride=(1, 1), padding=(0, 1), bias=False)
  (resconv2): Conv2d(1024, 1024, kernel_size=(1, 1), stride=(2, 2))
  (bn2): BatchNorm2d(512, eps=1e-05, momentum=0.1, affine=True, track_running_stats=True)
  (conv3): Conv2d(1024, 1024, kernel_size=(3, 3), stride=(2, 2), padding=(1, 1))
  (conv3_2): Conv2d(1024, 1024, kernel_size=(3, 1), stride=(2, 2), padding=(1, 0), bias=False)
  (conv3_3): Conv2d(1024, 1024, kernel_size=(1, 3), stride=(2, 2), padding=(0, 1), bias=False)
  (bn3): BatchNorm2d(1024, eps=1e-05, momentum=0.1, affine=True, track_running_stats=True)
  (conv4): Conv2d(1024, 1024, kernel_size=(3, 3), stride=(1, 1), padding=(1, 1))
  (conv4_2): Conv2d(1024, 1024, kernel_size=(3, 1), stride=(1, 1), padding=(1, 0), bias=False)
  (conv4_3): Conv2d(1024, 1024, kernel_size=(1, 3), stride=(1, 1), padding=(0, 1), bias=False)
  (resconv4): Conv2d(2048, 2048, kernel_size=(1, 1), stride=(2, 2))
  (bn4): BatchNorm2d(1024, eps=1e-05, momentum=0.1, affine=True, track_running_stats=True)
  (conv5): Conv2d(2048, 2048, kernel_size=(3, 3), stride=(2, 2), padding=(1, 1))
  (conv5_2): Conv2d(2048, 2048, kernel_size=(3, 1), stride=(2, 2), padding=(1, 0), bias=False)
  (conv5_3): Conv2d(2048, 2048, kernel_size=(1, 3), stride=(2, 2), padding=(0, 1), bias=False)
  (bn5): BatchNorm2d(2048, eps=1e-05, momentum=0.1, affine=True, track_running_stats=True)
  (conv6): Conv2d(2048, 2048, kernel_size=(3, 3), stride=(1, 1), padding=(1, 1))
  (conv6_2): Conv2d(2048, 2048, kernel_size=(3, 1), stride=(1, 1), padding=(1, 0), bias=False)
  (conv6_3): Conv2d(2048, 2048, kernel_size=(1, 3), stride=(1, 1), padding=(0, 1), bias=False)
  (bn6): BatchNorm2d(2048, eps=1e-05, momentum=0.1, affine=True, track_running_stats=True)
  (deconv1): ConvTranspose2d(4096, 2048, kernel_size=(3, 3), stride=(2, 2), padding=(1, 1), output_padding=(1, 1))
  (conv11_1): Conv2d(2048, 2048, kernel_size=(3, 3), stride=(1, 1), padding=(1, 1))
  (deconv_bn1): BatchNorm2d(512, eps=1e-05, momentum=0.1, affine=True, track_running_stats=True)
  (deconv2): ConvTranspose2d(4096, 1024, kernel_size=(3, 3), stride=(2, 2), padding=(1, 1), output_padding=(1, 1))
  (conv12_1): Conv2d(1024, 1024, kernel_size=(3, 3), stride=(1, 1), padding=(1, 1))
  (deconv_bn2): BatchNorm2d(128, eps=1e-05, momentum=0.1, affine=True, track_running_stats=True)
  (deconv3): ConvTranspose2d(2048, 128, kernel_size=(3, 3), stride=(1, 1), padding=(1, 1))
  (conv13_1): Conv2d(128, 128, kernel_size=(3, 3), stride=(1, 1), padding=(1, 1))
  (GP_conv0): Conv2d(384, 512, kernel_size=(1, 1), stride=(1, 1))
  (GP_pool1): AdaptiveMaxPool2d(output_size=(6, 6))
  (GP_conv1): Conv2d(384, 1024, kernel_size=(1, 1), stride=(1, 1))
  (GP_pool2): AdaptiveMaxPool2d(output_size=(3, 3))
  (GP_conv2): Conv2d(384, 2048, kernel_size=(1, 1), stride=(1, 1))
)
[2022-07-23 14:50:10,447][feature_train_ori.py][L121][INFO] Epoch 0 begin
[2022-07-23 14:51:47,557][feature_train_ori.py][L371][INFO] Auto Encoder training
[2022-07-23 14:51:47,557][feature_train_ori.py][L372][INFO] Encoder & Decoder Model : 
[2022-07-23 14:51:56,261][feature_train_ori.py][L384][INFO] Concatenation(
  (relu): LeakyReLU(negative_slope=0.01)
  (conv): Conv2d(384, 512, kernel_size=(3, 3), stride=(1, 1), padding=(1, 1))
  (conv1): Conv2d(512, 512, kernel_size=(3, 3), stride=(1, 1), padding=(1, 1))
  (conv1_2): Conv2d(512, 512, kernel_size=(3, 1), stride=(1, 1), padding=(1, 0), bias=False)
  (conv1_3): Conv2d(512, 512, kernel_size=(1, 3), stride=(1, 1), padding=(0, 1), bias=False)
  (bn1): BatchNorm2d(512, eps=1e-05, momentum=0.1, affine=True, track_running_stats=True)
  (conv2): Conv2d(512, 512, kernel_size=(3, 3), stride=(1, 1), padding=(1, 1))
  (conv2_2): Conv2d(512, 512, kernel_size=(3, 1), stride=(1, 1), padding=(1, 0), bias=False)
  (conv2_3): Conv2d(512, 512, kernel_size=(1, 3), stride=(1, 1), padding=(0, 1), bias=False)
  (resconv2): Conv2d(1024, 1024, kernel_size=(1, 1), stride=(2, 2))
  (bn2): BatchNorm2d(512, eps=1e-05, momentum=0.1, affine=True, track_running_stats=True)
  (conv3): Conv2d(1024, 1024, kernel_size=(3, 3), stride=(2, 2), padding=(1, 1))
  (conv3_2): Conv2d(1024, 1024, kernel_size=(3, 1), stride=(2, 2), padding=(1, 0), bias=False)
  (conv3_3): Conv2d(1024, 1024, kernel_size=(1, 3), stride=(2, 2), padding=(0, 1), bias=False)
  (bn3): BatchNorm2d(1024, eps=1e-05, momentum=0.1, affine=True, track_running_stats=True)
  (conv4): Conv2d(1024, 1024, kernel_size=(3, 3), stride=(1, 1), padding=(1, 1))
  (conv4_2): Conv2d(1024, 1024, kernel_size=(3, 1), stride=(1, 1), padding=(1, 0), bias=False)
  (conv4_3): Conv2d(1024, 1024, kernel_size=(1, 3), stride=(1, 1), padding=(0, 1), bias=False)
  (resconv4): Conv2d(2048, 2048, kernel_size=(1, 1), stride=(2, 2))
  (bn4): BatchNorm2d(1024, eps=1e-05, momentum=0.1, affine=True, track_running_stats=True)
  (conv5): Conv2d(2048, 2048, kernel_size=(3, 3), stride=(2, 2), padding=(1, 1))
  (conv5_2): Conv2d(2048, 2048, kernel_size=(3, 1), stride=(2, 2), padding=(1, 0), bias=False)
  (conv5_3): Conv2d(2048, 2048, kernel_size=(1, 3), stride=(2, 2), padding=(0, 1), bias=False)
  (bn5): BatchNorm2d(2048, eps=1e-05, momentum=0.1, affine=True, track_running_stats=True)
  (conv6): Conv2d(2048, 2048, kernel_size=(3, 3), stride=(1, 1), padding=(1, 1))
  (conv6_2): Conv2d(2048, 2048, kernel_size=(3, 1), stride=(1, 1), padding=(1, 0), bias=False)
  (conv6_3): Conv2d(2048, 2048, kernel_size=(1, 3), stride=(1, 1), padding=(0, 1), bias=False)
  (bn6): BatchNorm2d(2048, eps=1e-05, momentum=0.1, affine=True, track_running_stats=True)
  (deconv1): ConvTranspose2d(4096, 2048, kernel_size=(3, 3), stride=(2, 2), padding=(1, 1), output_padding=(1, 1))
  (conv11_1): Conv2d(4096, 4096, kernel_size=(3, 3), stride=(1, 1), padding=(1, 1))
  (deconv_bn1): BatchNorm2d(512, eps=1e-05, momentum=0.1, affine=True, track_running_stats=True)
  (deconv2): ConvTranspose2d(4096, 1024, kernel_size=(3, 3), stride=(2, 2), padding=(1, 1), output_padding=(1, 1))
  (conv12_1): Conv2d(2048, 2048, kernel_size=(3, 3), stride=(1, 1), padding=(1, 1))
  (deconv_bn2): BatchNorm2d(128, eps=1e-05, momentum=0.1, affine=True, track_running_stats=True)
  (deconv3): ConvTranspose2d(2048, 128, kernel_size=(3, 3), stride=(1, 1), padding=(1, 1))
  (conv13_1): Conv2d(128, 128, kernel_size=(3, 3), stride=(1, 1), padding=(1, 1))
  (GP_conv0): Conv2d(384, 512, kernel_size=(1, 1), stride=(1, 1))
  (GP_pool1): AdaptiveMaxPool2d(output_size=(6, 6))
  (GP_conv1): Conv2d(384, 1024, kernel_size=(1, 1), stride=(1, 1))
  (GP_pool2): AdaptiveMaxPool2d(output_size=(3, 3))
  (GP_conv2): Conv2d(384, 2048, kernel_size=(1, 1), stride=(1, 1))
)
[2022-07-23 14:52:03,359][feature_train_ori.py][L121][INFO] Epoch 0 begin
[2022-07-23 14:53:16,922][feature_train_ori.py][L341][INFO] Step [1/2500000=0.00%] | Epoch 0 | Time 73.065 (73.065) | Lr 0.0001 | AIC Loss 0.08078 (0.08078) | All Losses 0.08566 (0.08566)
[2022-07-23 14:54:29,671][feature_train_ori.py][L341][INFO] Step [2/2500000=0.00%] | Epoch 0 | Time 72.700 (72.700) | Lr 0.0001 | AIC Loss 0.44046 (0.44046) | All Losses 0.60946 (0.60946)
…
[2022-07-23 15:57:19,503][feature_train_ori.py][L341][INFO] Step [56/2500000=0.00%] | Epoch 0 | Time 69.582 (69.582) | Lr 0.0001 | AIC Loss 0.03477 (0.03477) | All Losses 0.04057 (0.04057)
[2022-07-23 15:58:29,468][feature_train_ori.py][L341][INFO] Step [57/2500000=0.00%] | Epoch 0 | Time 69.916 (69.916) | Lr 0.0001 | AIC Loss 0.03208 (0.03208) | All Losses 0.03985 (0.03985)
[2022-07-23 16:12:16,778][feature_train_ori.py][L371][INFO] Auto Encoder training
[2022-07-23 16:12:16,779][feature_train_ori.py][L372][INFO] Encoder & Decoder Model : 
[2022-07-23 16:12:25,470][feature_train_ori.py][L384][INFO] Concatenation(
  (relu): LeakyReLU(negative_slope=0.01)
  (conv): Conv2d(384, 512, kernel_size=(3, 3), stride=(1, 1), padding=(1, 1))
  (conv1): Conv2d(512, 512, kernel_size=(3, 3), stride=(1, 1), padding=(1, 1))
  (conv1_2): Conv2d(512, 512, kernel_size=(3, 1), stride=(1, 1), padding=(1, 0), bias=False)
  (conv1_3): Conv2d(512, 512, kernel_size=(1, 3), stride=(1, 1), padding=(0, 1), bias=False)
  (bn1): BatchNorm2d(512, eps=1e-05, momentum=0.1, affine=True, track_running_stats=True)
  (conv2): Conv2d(512, 512, kernel_size=(3, 3), stride=(1, 1), padding=(1, 1))
  (conv2_2): Conv2d(512, 512, kernel_size=(3, 1), stride=(1, 1), padding=(1, 0), bias=False)
  (conv2_3): Conv2d(512, 512, kernel_size=(1, 3), stride=(1, 1), padding=(0, 1), bias=False)
  (resconv2): Conv2d(1024, 1024, kernel_size=(1, 1), stride=(2, 2))
  (bn2): BatchNorm2d(512, eps=1e-05, momentum=0.1, affine=True, track_running_stats=True)
  (conv3): Conv2d(1024, 1024, kernel_size=(3, 3), stride=(2, 2), padding=(1, 1))
  (conv3_2): Conv2d(1024, 1024, kernel_size=(3, 1), stride=(2, 2), padding=(1, 0), bias=False)
  (conv3_3): Conv2d(1024, 1024, kernel_size=(1, 3), stride=(2, 2), padding=(0, 1), bias=False)
  (bn3): BatchNorm2d(1024, eps=1e-05, momentum=0.1, affine=True, track_running_stats=True)
  (conv4): Conv2d(1024, 1024, kernel_size=(3, 3), stride=(1, 1), padding=(1, 1))
  (conv4_2): Conv2d(1024, 1024, kernel_size=(3, 1), stride=(1, 1), padding=(1, 0), bias=False)
  (conv4_3): Conv2d(1024, 1024, kernel_size=(1, 3), stride=(1, 1), padding=(0, 1), bias=False)
  (resconv4): Conv2d(2048, 2048, kernel_size=(1, 1), stride=(2, 2))
  (bn4): BatchNorm2d(1024, eps=1e-05, momentum=0.1, affine=True, track_running_stats=True)
  (conv5): Conv2d(2048, 2048, kernel_size=(3, 3), stride=(2, 2), padding=(1, 1))
  (conv5_2): Conv2d(2048, 2048, kernel_size=(3, 1), stride=(2, 2), padding=(1, 0), bias=False)
  (conv5_3): Conv2d(2048, 2048, kernel_size=(1, 3), stride=(2, 2), padding=(0, 1), bias=False)
  (bn5): BatchNorm2d(2048, eps=1e-05, momentum=0.1, affine=True, track_running_stats=True)
  (conv6): Conv2d(2048, 2048, kernel_size=(3, 3), stride=(1, 1), padding=(1, 1))
  (conv6_2): Conv2d(2048, 2048, kernel_size=(3, 1), stride=(1, 1), padding=(1, 0), bias=False)
  (conv6_3): Conv2d(2048, 2048, kernel_size=(1, 3), stride=(1, 1), padding=(0, 1), bias=False)
  (bn6): BatchNorm2d(2048, eps=1e-05, momentum=0.1, affine=True, track_running_stats=True)
  (deconv1): ConvTranspose2d(4096, 2048, kernel_size=(3, 3), stride=(2, 2), padding=(1, 1), output_padding=(1, 1))
  (conv11_1): Conv2d(4096, 4096, kernel_size=(3, 3), stride=(1, 1), padding=(1, 1))
  (deconv_bn1): BatchNorm2d(512, eps=1e-05, momentum=0.1, affine=True, track_running_stats=True)
  (deconv2): ConvTranspose2d(4096, 1024, kernel_size=(3, 3), stride=(2, 2), padding=(1, 1), output_padding=(1, 1))
  (conv12_1): Conv2d(2048, 2048, kernel_size=(3, 3), stride=(1, 1), padding=(1, 1))
  (deconv_bn2): BatchNorm2d(128, eps=1e-05, momentum=0.1, affine=True, track_running_stats=True)
  (deconv3): ConvTranspose2d(2048, 128, kernel_size=(3, 3), stride=(1, 1), padding=(1, 1))
  (conv13_1): Conv2d(128, 128, kernel_size=(3, 3), stride=(1, 1), padding=(1, 1))
  (GP_conv0): Conv2d(384, 512, kernel_size=(1, 1), stride=(1, 1))
  (GP_pool1): AdaptiveMaxPool2d(output_size=(6, 6))
  (GP_conv1): Conv2d(384, 1024, kernel_size=(1, 1), stride=(1, 1))
  (GP_pool2): AdaptiveMaxPool2d(output_size=(3, 3))
  (GP_conv2): Conv2d(384, 2048, kernel_size=(1, 1), stride=(1, 1))
)
[2022-07-23 16:12:32,692][feature_train_ori.py][L121][INFO] Epoch 0 begin
[2022-07-23 16:13:46,042][feature_train_ori.py][L341][INFO] Step [1/2500000=0.00%] | Epoch 0 | Time 72.857 (72.857) | Lr 0.0001 | AIC Loss 0.07220 (0.07220) | All Losses 0.21428 (0.21428)
[2022-07-23 16:14:58,357][feature_train_ori.py][L341][INFO] Step [2/2500000=0.00%] | Epoch 0 | Time 72.266 (72.266) | Lr 0.0001 | AIC Loss 0.42504 (0.42504) | All Losses 0.42787 (0.42787)
…
[2022-07-23 16:56:20,015][feature_train_ori.py][L341][INFO] Step [37/2500000=0.00%] | Epoch 0 | Time 69.760 (69.760) | Lr 0.0001 | AIC Loss 0.10001 (0.10001) | All Losses 0.22939 (0.22939)
[2022-07-23 16:57:29,699][feature_train_ori.py][L341][INFO] Step [38/2500000=0.00%] | Epoch 0 | Time 69.635 (69.635) | Lr 0.0001 | AIC Loss 0.08799 (0.08799) | All Losses 0.21426 (0.21426)
[2022-07-23 17:03:35,872][feature_train_ori.py][L371][INFO] Auto Encoder training
[2022-07-23 17:03:35,872][feature_train_ori.py][L372][INFO] Encoder & Decoder Model : 
[2022-07-23 17:03:44,540][feature_train_ori.py][L384][INFO] Concatenation(
  (relu): LeakyReLU(negative_slope=0.01)
  (conv): Conv2d(384, 512, kernel_size=(3, 3), stride=(1, 1), padding=(1, 1))
  (conv1): Conv2d(512, 512, kernel_size=(3, 3), stride=(1, 1), padding=(1, 1))
  (conv1_2): Conv2d(512, 512, kernel_size=(3, 1), stride=(1, 1), padding=(1, 0), bias=False)
  (conv1_3): Conv2d(512, 512, kernel_size=(1, 3), stride=(1, 1), padding=(0, 1), bias=False)
  (bn1): BatchNorm2d(512, eps=1e-05, momentum=0.1, affine=True, track_running_stats=True)
  (conv2): Conv2d(512, 512, kernel_size=(3, 3), stride=(1, 1), padding=(1, 1))
  (conv2_2): Conv2d(512, 512, kernel_size=(3, 1), stride=(1, 1), padding=(1, 0), bias=False)
  (conv2_3): Conv2d(512, 512, kernel_size=(1, 3), stride=(1, 1), padding=(0, 1), bias=False)
  (resconv2): Conv2d(1024, 1024, kernel_size=(1, 1), stride=(2, 2))
  (bn2): BatchNorm2d(512, eps=1e-05, momentum=0.1, affine=True, track_running_stats=True)
  (conv3): Conv2d(1024, 1024, kernel_size=(3, 3), stride=(2, 2), padding=(1, 1))
  (conv3_2): Conv2d(1024, 1024, kernel_size=(3, 1), stride=(2, 2), padding=(1, 0), bias=False)
  (conv3_3): Conv2d(1024, 1024, kernel_size=(1, 3), stride=(2, 2), padding=(0, 1), bias=False)
  (bn3): BatchNorm2d(1024, eps=1e-05, momentum=0.1, affine=True, track_running_stats=True)
  (conv4): Conv2d(1024, 1024, kernel_size=(3, 3), stride=(1, 1), padding=(1, 1))
  (conv4_2): Conv2d(1024, 1024, kernel_size=(3, 1), stride=(1, 1), padding=(1, 0), bias=False)
  (conv4_3): Conv2d(1024, 1024, kernel_size=(1, 3), stride=(1, 1), padding=(0, 1), bias=False)
  (resconv4): Conv2d(2048, 2048, kernel_size=(1, 1), stride=(2, 2))
  (bn4): BatchNorm2d(1024, eps=1e-05, momentum=0.1, affine=True, track_running_stats=True)
  (conv5): Conv2d(2048, 2048, kernel_size=(3, 3), stride=(2, 2), padding=(1, 1))
  (conv5_2): Conv2d(2048, 2048, kernel_size=(3, 1), stride=(2, 2), padding=(1, 0), bias=False)
  (conv5_3): Conv2d(2048, 2048, kernel_size=(1, 3), stride=(2, 2), padding=(0, 1), bias=False)
  (bn5): BatchNorm2d(2048, eps=1e-05, momentum=0.1, affine=True, track_running_stats=True)
  (conv6): Conv2d(2048, 2048, kernel_size=(3, 3), stride=(1, 1), padding=(1, 1))
  (conv6_2): Conv2d(2048, 2048, kernel_size=(3, 1), stride=(1, 1), padding=(1, 0), bias=False)
  (conv6_3): Conv2d(2048, 2048, kernel_size=(1, 3), stride=(1, 1), padding=(0, 1), bias=False)
  (bn6): BatchNorm2d(2048, eps=1e-05, momentum=0.1, affine=True, track_running_stats=True)
  (deconv1): ConvTranspose2d(4096, 2048, kernel_size=(3, 3), stride=(2, 2), padding=(1, 1), output_padding=(1, 1))
  (conv11_1): Conv2d(4096, 4096, kernel_size=(3, 3), stride=(1, 1), padding=(1, 1))
  (deconv_bn1): BatchNorm2d(512, eps=1e-05, momentum=0.1, affine=True, track_running_stats=True)
  (deconv2): ConvTranspose2d(4096, 1024, kernel_size=(3, 3), stride=(2, 2), padding=(1, 1), output_padding=(1, 1))
  (conv12_1): Conv2d(2048, 2048, kernel_size=(3, 3), stride=(1, 1), padding=(1, 1))
  (deconv_bn2): BatchNorm2d(128, eps=1e-05, momentum=0.1, affine=True, track_running_stats=True)
  (deconv3): ConvTranspose2d(2048, 128, kernel_size=(3, 3), stride=(1, 1), padding=(1, 1))
  (conv13_1): Conv2d(128, 128, kernel_size=(3, 3), stride=(1, 1), padding=(1, 1))
  (GP_conv0): Conv2d(384, 512, kernel_size=(1, 1), stride=(1, 1))
  (GP_pool1): AdaptiveMaxPool2d(output_size=(6, 6))
  (GP_conv1): Conv2d(384, 1024, kernel_size=(1, 1), stride=(1, 1))
  (GP_pool2): AdaptiveMaxPool2d(output_size=(3, 3))
  (GP_conv2): Conv2d(384, 2048, kernel_size=(1, 1), stride=(1, 1))
)
[2022-07-23 17:03:51,668][feature_train_ori.py][L121][INFO] Epoch 0 begin
[2022-07-23 17:05:13,979][feature_train_ori.py][L371][INFO] Auto Encoder training
[2022-07-23 17:05:13,979][feature_train_ori.py][L372][INFO] Encoder & Decoder Model : 
[2022-07-23 17:05:22,635][feature_train_ori.py][L384][INFO] Concatenation(
  (relu): LeakyReLU(negative_slope=0.01)
  (conv): Conv2d(384, 512, kernel_size=(3, 3), stride=(1, 1), padding=(1, 1))
  (conv1): Conv2d(512, 512, kernel_size=(3, 3), stride=(1, 1), padding=(1, 1))
  (conv1_2): Conv2d(512, 512, kernel_size=(3, 1), stride=(1, 1), padding=(1, 0), bias=False)
  (conv1_3): Conv2d(512, 512, kernel_size=(1, 3), stride=(1, 1), padding=(0, 1), bias=False)
  (bn1): BatchNorm2d(512, eps=1e-05, momentum=0.1, affine=True, track_running_stats=True)
  (conv2): Conv2d(512, 512, kernel_size=(3, 3), stride=(1, 1), padding=(1, 1))
  (conv2_2): Conv2d(512, 512, kernel_size=(3, 1), stride=(1, 1), padding=(1, 0), bias=False)
  (conv2_3): Conv2d(512, 512, kernel_size=(1, 3), stride=(1, 1), padding=(0, 1), bias=False)
  (resconv2): Conv2d(1024, 1024, kernel_size=(1, 1), stride=(2, 2))
  (bn2): BatchNorm2d(512, eps=1e-05, momentum=0.1, affine=True, track_running_stats=True)
  (conv3): Conv2d(1024, 1024, kernel_size=(3, 3), stride=(2, 2), padding=(1, 1))
  (conv3_2): Conv2d(1024, 1024, kernel_size=(3, 1), stride=(2, 2), padding=(1, 0), bias=False)
  (conv3_3): Conv2d(1024, 1024, kernel_size=(1, 3), stride=(2, 2), padding=(0, 1), bias=False)
  (bn3): BatchNorm2d(1024, eps=1e-05, momentum=0.1, affine=True, track_running_stats=True)
  (conv4): Conv2d(1024, 1024, kernel_size=(3, 3), stride=(1, 1), padding=(1, 1))
  (conv4_2): Conv2d(1024, 1024, kernel_size=(3, 1), stride=(1, 1), padding=(1, 0), bias=False)
  (conv4_3): Conv2d(1024, 1024, kernel_size=(1, 3), stride=(1, 1), padding=(0, 1), bias=False)
  (resconv4): Conv2d(2048, 2048, kernel_size=(1, 1), stride=(2, 2))
  (bn4): BatchNorm2d(1024, eps=1e-05, momentum=0.1, affine=True, track_running_stats=True)
  (conv5): Conv2d(2048, 2048, kernel_size=(3, 3), stride=(2, 2), padding=(1, 1))
  (conv5_2): Conv2d(2048, 2048, kernel_size=(3, 1), stride=(2, 2), padding=(1, 0), bias=False)
  (conv5_3): Conv2d(2048, 2048, kernel_size=(1, 3), stride=(2, 2), padding=(0, 1), bias=False)
  (bn5): BatchNorm2d(2048, eps=1e-05, momentum=0.1, affine=True, track_running_stats=True)
  (conv6): Conv2d(2048, 2048, kernel_size=(3, 3), stride=(1, 1), padding=(1, 1))
  (conv6_2): Conv2d(2048, 2048, kernel_size=(3, 1), stride=(1, 1), padding=(1, 0), bias=False)
  (conv6_3): Conv2d(2048, 2048, kernel_size=(1, 3), stride=(1, 1), padding=(0, 1), bias=False)
  (bn6): BatchNorm2d(2048, eps=1e-05, momentum=0.1, affine=True, track_running_stats=True)
  (deconv1): ConvTranspose2d(4096, 2048, kernel_size=(3, 3), stride=(2, 2), padding=(1, 1), output_padding=(1, 1))
  (conv11_1): Conv2d(4096, 4096, kernel_size=(3, 3), stride=(1, 1), padding=(1, 1))
  (deconv_bn1): BatchNorm2d(2048, eps=1e-05, momentum=0.1, affine=True, track_running_stats=True)
  (deconv2): ConvTranspose2d(4096, 1024, kernel_size=(3, 3), stride=(2, 2), padding=(1, 1), output_padding=(1, 1))
  (conv12_1): Conv2d(2048, 2048, kernel_size=(3, 3), stride=(1, 1), padding=(1, 1))
  (deconv_bn2): BatchNorm2d(128, eps=1e-05, momentum=0.1, affine=True, track_running_stats=True)
  (deconv3): ConvTranspose2d(2048, 128, kernel_size=(3, 3), stride=(1, 1), padding=(1, 1))
  (conv13_1): Conv2d(128, 128, kernel_size=(3, 3), stride=(1, 1), padding=(1, 1))
  (GP_conv0): Conv2d(384, 512, kernel_size=(1, 1), stride=(1, 1))
  (GP_pool1): AdaptiveMaxPool2d(output_size=(6, 6))
  (GP_conv1): Conv2d(384, 1024, kernel_size=(1, 1), stride=(1, 1))
  (GP_pool2): AdaptiveMaxPool2d(output_size=(3, 3))
  (GP_conv2): Conv2d(384, 2048, kernel_size=(1, 1), stride=(1, 1))
)
[2022-07-23 17:05:29,747][feature_train_ori.py][L121][INFO] Epoch 0 begin
[2022-07-23 17:06:22,700][feature_train_ori.py][L371][INFO] Auto Encoder training
[2022-07-23 17:06:22,700][feature_train_ori.py][L372][INFO] Encoder & Decoder Model : 
[2022-07-23 17:06:31,362][feature_train_ori.py][L384][INFO] Concatenation(
  (relu): LeakyReLU(negative_slope=0.01)
  (conv): Conv2d(384, 512, kernel_size=(3, 3), stride=(1, 1), padding=(1, 1))
  (conv1): Conv2d(512, 512, kernel_size=(3, 3), stride=(1, 1), padding=(1, 1))
  (conv1_2): Conv2d(512, 512, kernel_size=(3, 1), stride=(1, 1), padding=(1, 0), bias=False)
  (conv1_3): Conv2d(512, 512, kernel_size=(1, 3), stride=(1, 1), padding=(0, 1), bias=False)
  (bn1): BatchNorm2d(512, eps=1e-05, momentum=0.1, affine=True, track_running_stats=True)
  (conv2): Conv2d(512, 512, kernel_size=(3, 3), stride=(1, 1), padding=(1, 1))
  (conv2_2): Conv2d(512, 512, kernel_size=(3, 1), stride=(1, 1), padding=(1, 0), bias=False)
  (conv2_3): Conv2d(512, 512, kernel_size=(1, 3), stride=(1, 1), padding=(0, 1), bias=False)
  (resconv2): Conv2d(1024, 1024, kernel_size=(1, 1), stride=(2, 2))
  (bn2): BatchNorm2d(512, eps=1e-05, momentum=0.1, affine=True, track_running_stats=True)
  (conv3): Conv2d(1024, 1024, kernel_size=(3, 3), stride=(2, 2), padding=(1, 1))
  (conv3_2): Conv2d(1024, 1024, kernel_size=(3, 1), stride=(2, 2), padding=(1, 0), bias=False)
  (conv3_3): Conv2d(1024, 1024, kernel_size=(1, 3), stride=(2, 2), padding=(0, 1), bias=False)
  (bn3): BatchNorm2d(1024, eps=1e-05, momentum=0.1, affine=True, track_running_stats=True)
  (conv4): Conv2d(1024, 1024, kernel_size=(3, 3), stride=(1, 1), padding=(1, 1))
  (conv4_2): Conv2d(1024, 1024, kernel_size=(3, 1), stride=(1, 1), padding=(1, 0), bias=False)
  (conv4_3): Conv2d(1024, 1024, kernel_size=(1, 3), stride=(1, 1), padding=(0, 1), bias=False)
  (resconv4): Conv2d(2048, 2048, kernel_size=(1, 1), stride=(2, 2))
  (bn4): BatchNorm2d(1024, eps=1e-05, momentum=0.1, affine=True, track_running_stats=True)
  (conv5): Conv2d(2048, 2048, kernel_size=(3, 3), stride=(2, 2), padding=(1, 1))
  (conv5_2): Conv2d(2048, 2048, kernel_size=(3, 1), stride=(2, 2), padding=(1, 0), bias=False)
  (conv5_3): Conv2d(2048, 2048, kernel_size=(1, 3), stride=(2, 2), padding=(0, 1), bias=False)
  (bn5): BatchNorm2d(2048, eps=1e-05, momentum=0.1, affine=True, track_running_stats=True)
  (conv6): Conv2d(2048, 2048, kernel_size=(3, 3), stride=(1, 1), padding=(1, 1))
  (conv6_2): Conv2d(2048, 2048, kernel_size=(3, 1), stride=(1, 1), padding=(1, 0), bias=False)
  (conv6_3): Conv2d(2048, 2048, kernel_size=(1, 3), stride=(1, 1), padding=(0, 1), bias=False)
  (bn6): BatchNorm2d(2048, eps=1e-05, momentum=0.1, affine=True, track_running_stats=True)
  (deconv1): ConvTranspose2d(4096, 2048, kernel_size=(3, 3), stride=(2, 2), padding=(1, 1), output_padding=(1, 1))
  (conv11_1): Conv2d(4096, 4096, kernel_size=(3, 3), stride=(1, 1), padding=(1, 1))
  (deconv_bn1): BatchNorm2d(2048, eps=1e-05, momentum=0.1, affine=True, track_running_stats=True)
  (deconv2): ConvTranspose2d(4096, 1024, kernel_size=(3, 3), stride=(2, 2), padding=(1, 1), output_padding=(1, 1))
  (conv12_1): Conv2d(2048, 2048, kernel_size=(3, 3), stride=(1, 1), padding=(1, 1))
  (deconv_bn2): BatchNorm2d(1024, eps=1e-05, momentum=0.1, affine=True, track_running_stats=True)
  (deconv3): ConvTranspose2d(2048, 128, kernel_size=(3, 3), stride=(1, 1), padding=(1, 1))
  (conv13_1): Conv2d(128, 128, kernel_size=(3, 3), stride=(1, 1), padding=(1, 1))
  (GP_conv0): Conv2d(384, 512, kernel_size=(1, 1), stride=(1, 1))
  (GP_pool1): AdaptiveMaxPool2d(output_size=(6, 6))
  (GP_conv1): Conv2d(384, 1024, kernel_size=(1, 1), stride=(1, 1))
  (GP_pool2): AdaptiveMaxPool2d(output_size=(3, 3))
  (GP_conv2): Conv2d(384, 2048, kernel_size=(1, 1), stride=(1, 1))
)
[2022-07-23 17:06:38,462][feature_train_ori.py][L121][INFO] Epoch 0 begin
[2022-07-23 17:07:51,228][feature_train_ori.py][L341][INFO] Step [1/2500000=0.00%] | Epoch 0 | Time 72.312 (72.312) | Lr 0.0001 | AIC Loss 0.39019 (0.39019) | All Losses 0.55182 (0.55182)
[2022-07-23 17:09:03,197][feature_train_ori.py][L341][INFO] Step [2/2500000=0.00%] | Epoch 0 | Time 71.942 (71.942) | Lr 0.0001 | AIC Loss 0.39184 (0.39184) | All Losses 0.54087 (0.54087)
…
[2022-07-23 17:30:17,097][feature_train_ori.py][L341][INFO] Step [21/2500000=0.00%] | Epoch 0 | Time 62.956 (62.956) | Lr 0.0001 | AIC Loss 0.18392 (0.18392) | All Losses 0.21691 (0.21691)
[2022-07-23 17:31:19,914][feature_train_ori.py][L341][INFO] Step [22/2500000=0.00%] | Epoch 0 | Time 62.790 (62.790) | Lr 0.0001 | AIC Loss 0.20012 (0.20012) | All Losses 0.23211 (0.23211)
[2022-07-23 17:34:31,595][feature_train_ori.py][L372][INFO] Auto Encoder training
[2022-07-23 17:34:31,595][feature_train_ori.py][L373][INFO] Encoder & Decoder Model : 
[2022-07-23 17:34:40,260][feature_train_ori.py][L385][INFO] Concatenation(
  (relu): LeakyReLU(negative_slope=0.01)
  (conv): Conv2d(384, 512, kernel_size=(3, 3), stride=(1, 1), padding=(1, 1))
  (conv1): Conv2d(512, 512, kernel_size=(3, 3), stride=(1, 1), padding=(1, 1))
  (conv1_2): Conv2d(512, 512, kernel_size=(3, 1), stride=(1, 1), padding=(1, 0), bias=False)
  (conv1_3): Conv2d(512, 512, kernel_size=(1, 3), stride=(1, 1), padding=(0, 1), bias=False)
  (bn1): BatchNorm2d(512, eps=1e-05, momentum=0.1, affine=True, track_running_stats=True)
  (conv2): Conv2d(512, 512, kernel_size=(3, 3), stride=(1, 1), padding=(1, 1))
  (conv2_2): Conv2d(512, 512, kernel_size=(3, 1), stride=(1, 1), padding=(1, 0), bias=False)
  (conv2_3): Conv2d(512, 512, kernel_size=(1, 3), stride=(1, 1), padding=(0, 1), bias=False)
  (resconv2): Conv2d(1024, 1024, kernel_size=(1, 1), stride=(2, 2))
  (bn2): BatchNorm2d(512, eps=1e-05, momentum=0.1, affine=True, track_running_stats=True)
  (conv3): Conv2d(1024, 1024, kernel_size=(3, 3), stride=(2, 2), padding=(1, 1))
  (conv3_2): Conv2d(1024, 1024, kernel_size=(3, 1), stride=(2, 2), padding=(1, 0), bias=False)
  (conv3_3): Conv2d(1024, 1024, kernel_size=(1, 3), stride=(2, 2), padding=(0, 1), bias=False)
  (bn3): BatchNorm2d(1024, eps=1e-05, momentum=0.1, affine=True, track_running_stats=True)
  (conv4): Conv2d(1024, 1024, kernel_size=(3, 3), stride=(1, 1), padding=(1, 1))
  (conv4_2): Conv2d(1024, 1024, kernel_size=(3, 1), stride=(1, 1), padding=(1, 0), bias=False)
  (conv4_3): Conv2d(1024, 1024, kernel_size=(1, 3), stride=(1, 1), padding=(0, 1), bias=False)
  (resconv4): Conv2d(2048, 2048, kernel_size=(1, 1), stride=(2, 2))
  (bn4): BatchNorm2d(1024, eps=1e-05, momentum=0.1, affine=True, track_running_stats=True)
  (conv5): Conv2d(2048, 2048, kernel_size=(3, 3), stride=(2, 2), padding=(1, 1))
  (conv5_2): Conv2d(2048, 2048, kernel_size=(3, 1), stride=(2, 2), padding=(1, 0), bias=False)
  (conv5_3): Conv2d(2048, 2048, kernel_size=(1, 3), stride=(2, 2), padding=(0, 1), bias=False)
  (bn5): BatchNorm2d(2048, eps=1e-05, momentum=0.1, affine=True, track_running_stats=True)
  (conv6): Conv2d(2048, 2048, kernel_size=(3, 3), stride=(1, 1), padding=(1, 1))
  (conv6_2): Conv2d(2048, 2048, kernel_size=(3, 1), stride=(1, 1), padding=(1, 0), bias=False)
  (conv6_3): Conv2d(2048, 2048, kernel_size=(1, 3), stride=(1, 1), padding=(0, 1), bias=False)
  (bn6): BatchNorm2d(2048, eps=1e-05, momentum=0.1, affine=True, track_running_stats=True)
  (deconv1): ConvTranspose2d(4096, 2048, kernel_size=(3, 3), stride=(2, 2), padding=(1, 1), output_padding=(1, 1))
  (conv11_1): Conv2d(4096, 4096, kernel_size=(3, 3), stride=(1, 1), padding=(1, 1))
  (deconv_bn1): BatchNorm2d(2048, eps=1e-05, momentum=0.1, affine=True, track_running_stats=True)
  (deconv2): ConvTranspose2d(4096, 1024, kernel_size=(3, 3), stride=(2, 2), padding=(1, 1), output_padding=(1, 1))
  (conv12_1): Conv2d(2048, 2048, kernel_size=(3, 3), stride=(1, 1), padding=(1, 1))
  (deconv_bn2): BatchNorm2d(1024, eps=1e-05, momentum=0.1, affine=True, track_running_stats=True)
  (deconv3): ConvTranspose2d(2048, 128, kernel_size=(3, 3), stride=(1, 1), padding=(1, 1))
  (conv13_1): Conv2d(128, 128, kernel_size=(3, 3), stride=(1, 1), padding=(1, 1))
  (GP_conv0): Conv2d(384, 512, kernel_size=(1, 1), stride=(1, 1))
  (GP_pool1): AdaptiveMaxPool2d(output_size=(6, 6))
  (GP_conv1): Conv2d(384, 1024, kernel_size=(1, 1), stride=(1, 1))
  (GP_pool2): AdaptiveMaxPool2d(output_size=(3, 3))
  (GP_conv2): Conv2d(384, 2048, kernel_size=(1, 1), stride=(1, 1))
)
[2022-07-23 17:34:47,367][feature_train_ori.py][L121][INFO] Epoch 0 begin
[2022-07-23 17:36:00,853][feature_train_ori.py][L342][INFO] Step [1/2500000=0.00%] | Epoch 0 | Time 73.002 (73.002) | Lr 0.0001 | AIC Loss 0.11787 (0.11787) | All Losses 0.11787 (0.11787)
[2022-07-23 17:37:13,753][feature_train_ori.py][L342][INFO] Step [2/2500000=0.00%] | Epoch 0 | Time 72.852 (72.852) | Lr 0.0001 | AIC Loss 0.41603 (0.41603) | All Losses 0.41603 (0.41603)
…
